models/CIC_IDS_2017/simple_AE.pt (torch, 24739 bytes, 12 tensors)

encoder.0.weight f4 [32, 55]
-0.13457792 0.39062223 0.015276803 -0.11557603 0.015254869 0.05341953 0.24868448 -0.40564147
-0.09361784 0.09647276 0.34286717 0.21004803 0.41890883 0.5184979 0.024813348 0.06363977
-0.002778769 -0.070772246 -0.18187204 -0.086431004 0.18808515 0.18943752 0.26087958 -0.5197926
-0.06437291 0.056165494 0.6534669 -0.06568398 -0.19355802 0.26487675 0.09875528 0.06990791
0.60396695 0.08819275 0.25117725 0.1475752 -0.048008054 -0.042276982 0.021462938 0.34326392
-0.051250324 -0.26271313 -0.7676384 0.13626656 0.025723085 -0.39394364 -0.11244319 -0.11128449
-0.13012879 0.36644787 -0.30255762 0.008312378 -0.097300306 0.15565734 0.22902456 -0.0976273
-0.6875381 0.21737717 -0.068240546 -0.388253 0.017078914 -0.20479348 -0.30221233 -0.31529766
0.0647366 -0.18324868 0.7911208 -0.07201345 -0.33230534 -0.788282 -0.083145134 0.14424431
-0.09403563 -0.35039473 0.34268433 -0.74300164 0.27592805 -0.007841374 -0.035510827 0.39493364
-0.6062419 0.0584197 0.13165964 -0.121007204 0.5415223 0.2505995 0.06496361 -0.080057815
-0.020617511 0.20136717 0.04984868 0.08867229 0.5931237 0.34939176 -0.02010108 -0.33698234
-0.48746246 0.18177454 0.010993236 0.23903295 -0.12566964 0.15282652 0.39514524 0.17472786
-0.053499106 0.0010402846 0.39965957 0.028329004 -0.3757532 -0.10031657 -0.33492362 0.30212423
0.4642279 0.40103608 0.33658051 0.31016463 -0.13772187 -0.11567676 -0.074691094 0.069787696
0.16448605 -0.19119288 0.37542573 0.26226845 -0.31917253 -0.22765112 0.63881665 0.16644329
-0.162497 0.042187814 0.48897663 0.076397754 -0.3772254 -0.094992 0.825332 0.51781803
-0.1626345 -0.1658867 0.12898609 -0.36685845 -0.00938967 0.13130996 -0.29047418 0.05811363
0.48090124 0.46662948 -0.13033737 -0.9401728 0.052884005 0.15497456 0.027248627 0.05929458
-0.090495825 -0.77386177 0.008478053 -0.25248557 0.1120475 0.015033487 -0.08159181 -0.47272614
-0.47357792 -0.046463463 0.05976132 -0.1044715 0.11559004 -0.2613191 0.3458379 -0.0020966695
0.093707964 0.42835817 -0.17059167 0.3029807 0.46020076 0.45365977 0.61566967 0.05824548
-0.19009918 0.03744445 -0.06342416 -0.107737884 -0.03325034 0.03702187 0.18374503 0.09172681
-0.9327688 0.18954107 -0.15146671 -0.33579832 -0.18289231 -0.24848166 0.6960554 0.29967508
0.24694598 0.71338034 0.49115092 -0.057716828 0.031042803 -0.27168533 0.08259923 0.11525409
-0.1150506 -0.9121065 -0.88940614 -0.20048791 0.13627155 0.05872071 0.038951255 -0.13318199
-0.12760234 0.0034242102 -0.2830612 0.26201016 0.104908235 -0.22251244 -0.35270014 -0.23141035
-0.3684826 0.11011488 0.41670048 -0.21801998 0.17337711 -0.012235902 -0.18412583 -0.14090705
0.3346256 -0.97938454 -0.07943238 0.23874822 -0.09901633 -0.05867442 -0.07229943 1.0371457
0.04648744 0.2948947 0.46675786 -0.48285612 -0.3102743 -0.6624973 0.22185174 -0.5028675
-0.037577834 0.6374989 -0.0033130974 0.17956418 0.51061404 0.12577005 0.36422813 0.07302821
-0.12915207 -0.26262543 0.27795413 -0.07752548 -0.017070975 0.03670829 0.059757672 -0.06382767
00000000: cbce 09be a3ff c73e 8e4b 7a3c 20b3 ecbd
00000010: 8fef 793c 70ce 5a3d 25a7 7e3e 3db0 cfbe
00000020: b6ba bfbd 8393 c53d 498c af3e d516 573e
00000030: 387b d63e 47bc 043f 5d45 cb3c 9155 823d
00000040: 021c 36bb 0af1 90bd aa3c 3abe bd02 b1bd
00000050: 6599 403e e9fb 413e 0292 853e 2111 05bf
00000060: f2d5 83bd ca0d 663d 9b49 273f 5385 86bd
00000070: 1334 46be ed9d 873e 3540 ca3d e12b 8f3d
00000080: 949d 1a3f 679e b43d 4e9a 803e f41d 173e
00000090: 18a4 44bd a12a 2dbd 0bd3 af3c 4ac0 af3e
000000a0: dceb 51bd 5682 86be f383 44bf 7689 0b3e
000000b0: 38b9 d23c fbb2 c9be 9d48 e6bd 1fe9 e3bd
000000c0: 7b40 05be 0e9f bb3e d5e8 9abe a430 083c
000000d0: 6245 c7bd a364 1f3e 6a85 6a3e d2f0 c7bd
000000e0: 7f02 30bf 1f98 5e3e b3c1 8bbd 19c9 c6be
000000f0: 14e9 8b3c 62b5 51be 93bb 9abe b26e a1be
00000100: 9f94 843d 8ba5 3bbe e586 4a3f ca7b 93bd
00000110: ed23 aabe d9cc 49bf ff47 aabd c8b4 133e
00000120: c195 c0bd f066 b3be 5274 af3e 5b35 3ebf
00000130: 7146 8d3e 1b79 00bc cd73 11bd be34 ca3e
00000140: ab32 1bbf 7f49 6f3d c9d1 063e a0d2 f7bd
00000150: 35a1 0a3f 944e 803e a40b 853d 5af5 a3bd
00000160: 0ee6 a8bc 3233 4e3e 212e 4c3d d199 b53d
00000170: f4d6 173f 7ae3 b23e 05ab a4bc f388 acbe
00000180: ae94 f9be 1b23 3a3e f91c 343c 0ec5 743e
00000190: 8baf 00be 8e7e 1c3e 7a50 ca3e dceb 323e
000001a0: e121 5bbd 295a 883a 2ea0 cc3e 3a12 e83c
000001b0: b962 c0be c672 cdbd 1c7b abbe 07b0 9a3e
000001c0: 48af ed3e 9a54 cd3e 4854 ac3e e6cd 9e3e
000001d0: f606 0dbe f0e7 ecbd a5f7 98bd daec 8e3d
000001e0: 086f 283e 11c8 43be cd37 c03e 0d48 863e
000001f0: 956a a3be 601d 69be 7d89 233f 1c70 2a3e
00000200: 9d65 26be 21cd 2c3d 255b fa3e 6d76 9c3d
00000210: b023 c1be 2a8b c2bd f548 533f b98f 043f
00000220: a989 26be 34de 29be ee14 043e dfd4 bbbe
00000230: 21d7 19bc 1e76 063e 08b9 94be 8f08 6e3d
00000240: b038 f63e 0fea ee3e 2977 05be 2aaf 70bf
00000250: e69c 583d a7b1 1e3e 8338 df3c e0de 723d
00000260: e055 b9bd ce1b 46bf 88e7 0a3c ca45 81be
00000270: 2979 e53d 044f 763c 9b19 a7bd 2909 f2be
00000280: ce78 f2be 7950 3ebd 49c8 743d 27f5 d5bd
00000290: 79ba ec3d 9ecb 85be aa11 b13e 4768 09bb
000002a0: f6e9 bf3d c351 db3e 95af 2ebe 4920 9b3e
000002b0: 6f9f eb3e 1846 e83e 879c 1d3f d092 6e3d
000002c0: 5ca9 42be 5a5f 193d 87e4 81bd aea5 dcbd
000002d0: 8231 08bd 3fa4 173d a827 3c3e 44db bb3d
000002e0: f0c9 6ebf 0e17 423e 171a 1bbe c2ed abbe
000002f0: 1f48 3bbe fa71 7ebe b030 323f 036f 993e
00000300: 68df 7c3e 18a0 363f 2278 fb3e 7b68 6cbd
00000310: 7a4d fe3c 571a 8bbe c929 a93d 560a ec3d
00000320: a69f ebbd d07f 69bf 1fb0 63bf b44c 4dbe
00000330: c58a 0b3e 2185 703d 5a8b 1f3d dc60 08be
00000340: 30aa 02be b768 603b 66ed 90be 3226 863e
00000350: 21da d63d 4dda 63be 1d95 b4be d6f6 6cbe
00000360: c0a9 bcbe e983 e13d c459 d53e a140 5fbe
00000370: c589 313e 1879 48bc 7b8b 3cbe f049 10be
00000380: 0c54 ab3e f2b8 7abf 72ad a2bd 6a7a 743e
00000390: 13c9 cabd 9754 70bd b911 94bd 31c1 843f
000003a0: 9d69 3e3d 70fc 963e e3fa ee3e eb38 f7be
000003b0: 46dc 9ebe 6c99 29bf 1a2d 633e edbb 00bf
000003c0: 37eb 19bd 2133 233f 8d20 59bb acdf 373e
000003d0: 9ab7 023f ddc9 003e 1c7c ba3e d08f 953d
000003e0: 7140 04be d776 86be 0150 8e3e aec5 9ebd
000003f0: 6ed8 8bbc 6f5b 163d 76c4 743d 15b8 82bd

encoder.0.bias f4 [32]
0.69767755 -0.42573288 0.32846984 0.18370152 -0.7578296 0.1376807 1.6332724 1.0770955
-2.01294 0.1558369 -0.28170225 0.08851263 0.35916162 1.9415652 0.46927592 0.55178225
-0.014408618 -1.8665346 0.7530495 0.9143855 -0.06330883 -1.3358629 -1.5305933 -0.87435746
0.47071505 0.56576663 -0.9291219 -0.5574653 -0.37428445 -0.06955776 -0.90034217 0.29815584
00000000: ff9a 323f a9f9 d9be 332d a83e 401c 3c3e
00000010: 1f01 42bf 2bfc 0c3e 120f d13f 44de 893f
00000020: 02d4 00c0 b593 1f3e 473b 90be 1c46 b53d
00000030: 08e4 b73e 3585 f83f ef44 f03e 9a41 0d3f
00000040: 2012 6cbc 9bea eebf dac7 403f 2b15 6a3f
00000050: 0fa8 81bd 8efd aabf 7bea c3bf e4d5 5fbf
00000060: 9001 f13e 15d6 103f efda 6dbf 0cb6 0ebf
00000070: 36a2 bfbe 4d74 8ebd d37c 66bf e2a7 983e

encoder.2.weight f4 [16, 32]
0.10568825 -0.38536197 0.2915044 -0.053159602 0.22664137 -0.06362674 -0.036331423 0.0074097305
-0.4696562 0.17657599 0.057729702 0.016499253 -0.2736016 -0.08455004 0.1571947 0.2495554
-0.18067998 -0.04249559 0.4524069 0.18239866 -0.4131363 0.01927798 -0.0085866265 -0.1687643
-0.22868477 0.028372595 -0.04460563 -0.14438608 0.10582772 0.42693603 0.078283474 0.15746641
0.15280913 0.21374087 0.630154 -0.024063535 -0.24179548 0.045798596 0.19495055 -0.014698832
-0.05874681 -0.15655927 0.10357796 0.25133282 0.34074193 -0.22451094 0.17719553 0.25144282
0.09684051 0.0994402 -0.124079205 0.038842913 -0.04106989 -0.05540658 0.11703265 0.3675303
0.11804288 0.029802375 0.1580188 -0.09688837 0.3151473 0.034006126 0.24201237 0.014005874
0.07822076 -0.105777 0.032189865 -0.12372858 0.4971756 0.2915589 0.03668467 -0.013186899
-0.23608947 -0.066977605 -0.20875216 0.4957345 -0.14422967 -0.11911024 -0.3306311 0.56931794
-0.2656783 0.043075465 0.31325573 0.2599794 -0.011493688 0.08222921 -0.17209952 0.36217165
-0.099391095 0.13342774 0.07052467 -0.10599475 0.24931335 0.1522312 0.23043858 -0.022726284
-0.25743833 0.28609678 0.07139266 -0.59205306 -0.4658189 0.12801126 -0.18051742 -0.22776963
0.13228336 -0.30158922 0.15198204 -0.004302645 -0.28470376 -0.17195739 -0.034934904 0.31648546
0.29026783 -0.4041779 -2.6501324 0.12857698 0.3708324 0.054932058 0.65193933 -2.1567655
-0.18339686 0.46701407 -0.19046876 -0.651103 -0.20411956 -1.929169 -0.7659703 0.038016576
-0.002017776 0.03156548 0.03332297 -0.48508328 -0.24367554 0.028770018 0.12742212 -0.27735507
0.1493898 -0.5336697 0.11199303 0.23906898 -0.14276332 0.06499023 -0.07702746 0.23475948
0.068804584 0.29414737 -0.041348662 0.36964902 0.026319932 0.287154 -0.034848917 0.0044494225
0.09153508 -0.1111406 0.29369864 0.3219197 -0.0103083635 -0.4474477 0.5078892 0.26722234
-0.17224808 -0.026996002 0.14139815 -0.116657265 0.057226688 0.004341797 -0.20189409 0.19050051
0.16553415 0.057977248 0.18138213 0.45822632 -0.25566214 0.24179691 -0.19461703 -0.39607033
0.086785756 -0.07073338 -0.37415814 0.07034844 0.40835676 -0.023693027 0.067421205 -0.097341284
0.019491075 0.18899348 -0.05549507 -0.18889032 0.21381986 -0.3648699 0.042528518 -0.15274897
0.039608996 0.34477052 -0.030567449 -0.43377042 0.16304395 0.074923925 0.015422164 -0.068585224
0.00199611 -0.12909122 -0.20909381 -0.06134516 -0.078768656 0.5553383 -0.108837664 0.34440354
-0.049135443 -0.50091344 0.52579033 -0.0036740364 -0.41943863 0.13928786 0.13309568 0.20123695
0.10341996 -0.005178052 0.5701307 0.047915157 0.15114185 0.31021863 -0.021006832 0.012562687
-0.018644214 -0.56025517 0.117341466 0.3210491 0.22810908 -0.14644459 0.580502 -0.17562845
-0.12740423 -0.07563879 -0.44698554 -0.6831322 0.06895969 0.3751107 -0.4080557 -0.056564566
-0.23492517 -0.1908232 0.039138474 0.12389244 0.30518985 -0.056003314 -0.32803565 -1.1454618
-0.033412777 0.12530687 -0.3804791 0.41709626 -0.34439072 0.6577765 0.021533955 -0.07715557
00000000: 1573 d83d 2a4e c5be 1140 953e e2bd 59bd
00000010: ad14 683e bc4e 82bd 42d0 14bd 53cd f23b
00000020: c776 f0be 56d0 343e fb75 6c3d 7129 873c
00000030: 8215 8cbe 9228 adbd a6f7 203e 738b 7f3e
00000040: 2c04 39be db0f 2ebd e1a1 e73e b7c6 3a3e
00000050: 9a86 d3be dbec 9d3c ecae 0cbc 8cd0 2cbe
00000060: 572c 6abe a56d e83c 65b4 36bd f2d9 13be
00000070: 34bc d83d 5c97 da3e 1653 a03d e03e 213e
00000080: ff79 1c3e e3de 5a3e c651 213f e420 c5bc
00000090: 3c99 77be 4f97 3b3d 1ea1 473e 5fd3 70bc
000000a0: 7fa0 70bd 1351 20be ae20 d43d b2ae 803e
000000b0: ba75 ae3e 32e6 65be bf72 353e 1dbd 803e
000000c0: 5154 c63d 4ea7 cb3d 3d1d febd bf19 1f3d
000000d0: e738 28bd 03f2 62bd d0ae ef3d ee2c bc3e
000000e0: 77c0 f13d 1c24 f43c aecf 213e 696d c6bd
000000f0: fd5a a13e 024a 0b3d 17d2 773e e578 653c
00000100: 3532 a03d 9da1 d8bd 85d9 033d 6965 fdbd
00000110: cd8d fe3e 3547 953e aa42 163d dd0d 58bc
00000120: 70c1 71be 8e2b 89bd 20c3 55be ead0 fd3e
00000130: f1b0 13be 12f0 f3bd 7b48 a9be d2be 113f
00000140: fc06 88be e66f 303d 0e63 a03e 051c 853e
00000150: 0650 3cbc ca67 a83d db3a 30be 906e b93e
00000160: 8f8d cbbd 48a1 083e 3d6f 903d c713 d9bd
00000170: 004c 7f3e 7fe2 1b3e 17f8 6b3e 792c babc
00000180: f5ce 83be 477b 923e 5136 923d ca90 17bf
00000190: d17f eebe 6215 033e 8fd9 38be 713c 69be
000001a0: 4a75 073e e769 9abe 2ea1 1b3e 34fd 8cbb
000001b0: b1c4 91be 9915 30be e717 0fbd 620a a23e
000001c0: fc9d 943e 68f0 cebe c59b 29c0 afa9 033e
000001d0: bfdd bd3e 7000 613d 7fe5 263f 7208 0ac0
000001e0: 63cc 3bbe 781c ef3e 3e0a 43be b0ae 26bf
000001f0: b804 51be 03ef f6bf a116 44bf 45b7 1b3d
00000200: aa3c 04bb ce4a 013d ab7d 083d d65c f8be
00000210: 1586 79be 1aaf eb3c f27a 023e 7c01 8ebe
00000220: a4f9 183e 949e 08bf 9a5c e53d 80ce 743e
00000230: 8c30 12be 9919 853d 93c0 9dbd ca64 703e
00000240: 6be9 8c3d 7c9a 963e 375d 29bd a342 bd3e
00000250: e69c d73c d905 933e bdbd 0ebd 76cc 913b
00000260: be76 bb3d af9d e3bd ab5f 963e a9d2 a43e
00000270: 69e4 28bc dd17 e5be 0705 023f 5ed1 883e
00000280: cd61 30be b826 ddbc adca 103e 01ea eebd
00000290: 8866 6a3d a245 8e3b 53bd 4ebe 9112 433e
000002a0: c981 293e 8d79 6d3d 3dbc 393e a49c ea3e
000002b0: 26e6 82be 9c99 773e b049 47be bbc9 cabe
000002c0: bbbc b13d aadc 90bd a891 bfbe d812 903d
000002d0: 2314 d13e e117 c2bc 2114 8a3d de5a c7bd
000002e0: bfab 9f3c 8287 413e cc4e 63bd 776c 41be
000002f0: 98f3 5a3e 3ad0 babe 6232 2e3d 3a6a 1cbe
00000300: 0b3d 223d c385 b03e 9668 fabc 2817 debe
00000310: fef4 263e b771 993d 3fad 7c3c 6976 8cbd
00000320: 2bd1 023b 7d30 04be b01c 56be 1045 7bbd
00000330: 7651 a1bd a72a 0e3f 48e6 debd a955 b03e
00000340: 3f42 49bd dd3b 00bf 329a 063f 1ac8 70bb
00000350: a9c0 d6be 7aa1 0e3e 3c4a 083e 0f11 4e3e
00000360: d8cd d33d a6ac a9bb 16f4 113f af42 443d
00000370: eec4 1a3e fad4 9e3e 8516 acbc bad3 4d3c
00000380: c0bb 98bc e26c 0fbf b950 f03d 8c60 a43e
00000390: 6d95 693e 92f5 15be c79b 143f f2d7 33be
000003a0: 4176 02be 83e8 9abd 4adb e4be c0e1 2ebf
000003b0: bd3a 8d3d 820e c03e adec d0be 3fb0 67bd
000003c0: 3990 70be 2867 43be aa4f 203d 52bb fd3d
000003d0: d841 9c3e bb63 65bd 4af4 a7be 7e9e 92bf
000003e0: d6db 08bd 7250 003e 28ce c2be a48d d53e
000003f0: fb53 b0be 0a64 283f fa67 b03c bd03 9ebd

encoder.2.bias f4 [16]
0.58395493 0.38424802 0.0023230638 0.37855732 -0.015686907 0.20538357 -0.112736955 -0.75005066
-0.21935877 -0.1247667 -0.15241978 0.20862429 -0.21304578 0.4644429 0.40777323 -0.18657029
00000000: 127e 153f 28bc c43e 8b3e 183b 44d2 c13e
00000010: d481 80bc 1250 523e a2e2 e6bd 5203 40bf
00000020: 969f 60be af85 ffbd ee13 1cbe 9ba1 553e
00000030: ac28 5abe 76cb ed3e a7c7 d03e 480c 3fbe

encoder.4.weight f4 [8, 16]
0.11011678 0.10828885 0.19619259 0.0034836354 -0.047866814 -0.20952056 0.08237885 -0.05887358
-0.015173807 0.2286298 -0.38719866 -0.24133866 0.049454007 0.178657 -0.246342 -0.22647071
-0.10305059 0.17451473 -0.06321493 0.24880365 -0.0830595 -0.07287691 -0.085172296 0.0037117484
-0.012763629 0.08676307 0.14651254 -0.19577156 0.04835809 0.27982566 -0.1813014 0.45485893
-0.3614526 0.26419073 -0.071810246 -0.49454877 0.1415695 -0.03736916 0.37210974 0.13848357
0.39460203 -0.021817008 -0.13602263 -0.086855456 0.024497576 -0.45372504 -0.106023766 0.32463965
-0.2997273 -0.26220283 -0.0008330855 0.08437742 0.014150328 -0.37156597 -0.029413315 0.1707187
0.12667605 0.22854683 0.29882407 0.021589337 -0.17288816 0.0734399 -0.13223302 -0.10126245
0.21001108 0.46382135 -0.07254574 0.22147714 0.21404512 0.4600571 -0.096753746 0.2899469
0.15867943 -0.17450589 0.23322318 -0.12446249 -0.29293597 0.040769614 -0.18014161 -0.05481536
-0.25186968 -0.045798905 0.051679686 0.21735902 -0.0138721 0.34572688 -0.032375704 -0.1395008
0.25893086 -0.14453101 0.10455688 0.0037333388 -0.39164555 0.21156803 -0.08130123 -0.0142829055
0.41463462 -0.14408085 -0.14665508 0.08239077 -0.15353972 -0.09062772 0.4255924 -0.11239088
-0.1752162 -0.12437371 0.20593214 -0.08835266 -0.18336554 0.07017934 0.2738698 0.029135522
-0.25487283 0.20929919 -0.022360941 -0.22119118 0.08071853 -0.020868534 -0.13632043 -0.1619344
0.68336886 0.020856615 0.15468451 -0.46523178 0.40394393 -0.15729041 -0.053662468 -0.2666154
00000000: e884 e13d 8bc6 dd3d b6e6 483e b44d 643b
00000010: fe0f 44bd 8f8c 56be 3eb6 a83d 6c25 71bd
00000020: 8f9b 78bc ee1d 6a3e e73e c6be 7b21 77be
00000030: 4990 4a3d dcf1 363e 1441 7cbe f0e7 67be
00000040: 300c d3bd fdb3 323e d476 81bd 62c6 7e3e
00000050: 191b aabd 7d40 95bd d06e aebd ce40 733b
00000060: 8a1e 51bc d6b0 b13d 6207 163e 5778 48be
00000070: 2213 463d 4f45 8f3e 13a7 39be 45e3 e83e
00000080: 5110 b9be 0244 873e 4011 93bd 7f35 fdbe
00000090: 98f7 103e 6810 19bd 2b85 be3e a3ce 0d3e
000000a0: 4709 ca3e 95b9 b2bc 8449 0bbe 46e1 b1bd
000000b0: 24af c83c a64e e8be fd22 d9bd 2b37 a63e
000000c0: db75 99be 733f 86be 6c63 5aba 12ce ac3d
000000d0: c7d6 673c e53d bebe 31f4 f0bc e2d0 2e3e
000000e0: 5eb7 013e 2e08 6a3e 78ff 983e 1fdc b03c
000000f0: 9809 31be a967 963d 1868 07be b062 cfbd
00000100: 250d 573e fe79 ed3e dc92 94bd e7ca 623e
00000110: a52e 5b3e 9b8c eb3e d426 c6bd ec73 943e
00000120: dc7c 223e acb1 32be 0fd2 6e3e 31e6 febd
00000130: b4fb 95be 0afe 263d 0b77 38be 1286 60bd
00000140: 10f5 80be a297 3bbd 14ae 533d 5d93 5e3e
00000150: ce47 63bc 1d03 b13e 639c 04bd 4cd9 0ebe
00000160: 9692 843e f0ff 13be eb21 d63d 08ab 743b
00000170: c485 c8be 4aa5 583e 4281 a6bd d902 6abc
00000180: fd4a d43e ee89 13be c02c 16be 7ebc a83d
00000190: 8439 1dbe 079b b9bd 3fe7 d93e 312d e6bd
000001a0: e06b 33be a5b7 febd e0df 523e 3df2 b4bd
000001b0: 2dc4 3bbe 30ba 8f3d aa38 8c3e 9ead ee3c
000001c0: b17e 82be 8752 563e 4b2e b7bc f17f 62be
000001d0: c24f a53d 7df4 aabc 9597 0bbe 22d2 25be
000001e0: 43f1 2e3f 7edb aa3c 9e65 1e3e dc32 eebe
000001f0: bdd1 ce3e bd10 21be 2dcd 5bbd d081 88be

encoder.4.bias f4 [8]
-0.02939761 -0.12580682 0.113738365 0.25904393 -0.40059987 0.005483574 -0.1240695 0.032725155
00000000: 42d3 f0bc 81d3 00be a9ef e83d 68a1 843e
00000010: 6d1b cdbe 8daf b33b 2618 febd d00a 063d

decoder.0.weight f4 [16, 8]
0.028338946 -0.28655887 0.31946227 -0.19276476 -0.20992242 0.021513676 0.24875976 -0.014933346
-0.17811294 0.34782958 -0.11857222 0.21692875 0.06395692 -0.26281977 -0.2531989 0.16366954
0.3537103 0.003257542 0.40921965 -0.035742458 -0.061314594 0.3368448 -0.38425824 -0.17589235
-0.33567467 -0.2468871 -0.106464595 0.0037969693 0.10208519 0.7378772 -0.21439274 0.36114323
0.025168413 -0.21139464 -0.22009209 -0.10880123 -0.19273661 -0.033579037 -0.10652688 -0.501147
0.13140863 -0.095110245 -0.05672762 -0.06338465 0.36416656 -0.38437974 0.03960159 0.012959913
0.1951269 0.105409026 0.24152039 0.020248368 -0.13573834 -0.32459083 -0.26436868 -0.010030125
-0.30022782 0.2906773 -0.1058269 -0.044902828 -0.15436746 -0.32679147 0.32221708 0.08156809
0.41659942 0.17125648 -0.02982633 -0.5887893 -0.48625934 0.67310613 -0.033645596 0.119386755
-0.05563099 0.12499799 -0.0029407304 -0.5537698 0.33434433 0.21624842 -0.10736815 0.1370319
-0.0916362 -0.14264913 0.14308 0.55448556 -0.039855544 -0.3454753 0.08858901 0.092081204
0.37810826 0.15491152 0.046026595 0.32752445 0.07503477 -0.083217464 0.06510585 0.060898807
-0.36472344 -0.15148363 -0.08826114 0.14983872 0.22864258 -0.022398137 0.006579361 -0.2769314
0.1926001 0.13553423 0.031963743 -0.17749698 -0.28964356 0.22698033 0.23009486 0.42595908
-0.048205517 0.17211854 0.35799074 0.28196236 0.17151506 0.07499624 0.07576088 -0.21594773
-0.14964068 -0.13552713 0.03531402 -0.4172448 -0.5388041 -0.08774853 -0.1649824 0.4509577
00000000: 1427 e83c d8b7 92be 8f90 a33e 2064 45be
00000010: e7f5 56be 733d b03c e1ba 7e3e feaa 74bc
00000020: 3d63 36be b816 b23e fed5 f2bd 9222 5e3e
00000030: d8fb 823d 5090 86be 49a3 81be fd98 273e
00000040: 8419 b53e 7c7c 553b 3d85 d13e af66 12bd
00000050: 0325 7bbd ec76 ac3e 7fbd c4be 201d 34be
00000060: 8ddd abbe f9cf 7cbe 1c0a dabd 93d6 783b
00000070: 0a12 d13d 85e5 3c3f c589 5bbe c4e7 b83e
00000080: fd2d ce3c d677 58be d25f 61be 2ed3 debd
00000090: bf5c 45be 2c8a 09bd c42a dabd 2b4b 00bf
000000a0: fc8f 063e 29c9 c2bd 395b 68bd d0cf 81bd
000000b0: 0a74 ba3e 6ccd c4be 4735 223d d155 543c
000000c0: 59cf 473e b0e0 d73d 1f51 773e e8df a53c
000000d0: fefe 0abe c530 a6be 555b 87be 6555 24bc
000000e0: 76b7 99be a8d3 943e c6bb d8bd 07ec 37bd
000000f0: 8112 1ebe 3651 a7be a3f9 a43e 2c0d a73d
00000100: 854c d53e dc5d 2f3e 5956 f4bc e5ba 16bf
00000110: fcf6 f8be af50 2c3f f7cf 09bd 0b81 f43d
00000120: 52dd 63bd f2fe ff3d 45b9 40bb dcc3 0dbf
00000130: 2e2f ab3e 3a70 5d3e d5e3 dbbd 1752 0c3e
00000140: c3ab bbbd 9d12 12be 9083 123e c4f2 0d3f
00000150: 913f 23bd 23e2 b0be 286e b53d 1295 bc3d
00000160: 6897 c13e 20a1 1e3e 6286 3c3d 49b1 a73e
00000170: d4ab 993d eb6d aabd 3756 853d 0771 793d
00000180: 08bd babe 861e 1bbe 42c2 b4bd 526f 193e
00000190: 4821 6a3e 4c7c b7bc ae97 d73b f4c9 8dbe
000001a0: f638 453e 7cc9 0a3e 6aec 023d c5c1 35be
000001b0: 294c 94be 886d 683e fd9d 6b3e 4f17 da3e
000001c0: 2673 45bd d83f 303e 904a b73e 5f5d 903e
000001d0: a5a1 2f3e a197 993d 8528 9b3d 6721 5dbe
000001e0: 683b 19be a0c7 0abe 6fa5 103d 1ca1 d5be
000001f0: 11ef 09bf 80b5 b3bd 25f1 28be ede3 e63e

decoder.0.bias f4 [16]
0.10341774 0.68351036 0.32055765 0.014012784 -0.123707354 0.5961802 0.5343251 -0.10112478
0.16184732 0.068175375 -0.06500244 0.25800028 -0.34741715 0.054132614 1.0027896 0.1258416
00000000: aecc d33d 89fa 2e3f 2220 a43e e095 653c
00000010: 485a fdbd 449f 183f 88c9 083f 821a cfbd
00000020: 4ebb 253e 889f 8b3d 0020 85bd 9d18 843e
00000030: a9e0 b1be 29ba 5d3d 695b 803f 9fdc 003e

decoder.2.weight f4 [32, 16]
-0.4869466 -0.32054386 0.093607076 -0.15406297 0.03340015 0.25988445 -0.54570085 0.15720326
-0.397189 -0.32351577 0.5775517 0.1187676 0.05630404 0.4819708 0.49554256 0.0083586555
-0.23596264 0.21146604 -0.6173358 0.27834216 -0.07847154 -0.19265863 -0.09672323 -0.07491215
0.024884125 0.37229952 -0.40355557 -0.18410423 0.042815845 1.5635327 -0.14404066 -1.8550128
-0.32012105 -0.11055162 -0.30608284 -0.0073412885 -0.77390355 0.25605914 0.39977416 0.22917598
0.13948725 0.2583867 0.5694531 0.16486204 -0.44364944 -0.25221187 0.1211316 -0.27184945
0.40191382 0.65091103 -0.2775496 0.43334585 0.18419042 0.030429779 0.017560909 -0.39564043
0.31228894 -0.03985282 0.091134 -0.78767055 -0.46738577 0.1996294 0.17083406 0.24487501
0.49047738 -0.118181765 0.41296437 -0.032206442 -0.16022764 -0.21488708 0.4366819 -0.2907408
0.2785451 0.11428229 0.13004854 0.47468913 0.26749542 -0.44512495 -0.5320848 0.079456896
-0.30493346 -0.2941877 -1.3391159 0.17349477 0.59537256 0.38110828 0.24935855 -0.38320944
-0.20426498 -0.31811237 -0.21734364 0.30476177 -0.079664476 0.11370093 -0.00771765 0.17863086
0.19911739 -0.26197353 0.067444384 0.20502552 0.21871455 0.5356681 0.27940586 -0.18248574
-0.18097334 0.1839355 -0.07577959 0.45612374 -0.23942979 0.47295174 -0.14681494 -0.09708865
-0.2284296 -0.1471223 0.4665726 0.2572614 -0.10129986 -0.08707786 0.09087918 -0.04545209
0.10816154 0.0055079246 0.06872262 0.24679972 -0.566327 -0.2928359 -0.13021594 -0.5277607
-0.054096427 0.49417195 0.62234193 0.33124486 0.6239374 -0.8960943 -0.45271084 -0.17761694
0.66672885 -0.6825393 0.50909644 -0.3861843 0.30800194 0.03749003 -0.14000288 0.06222671
-0.3230965 0.18835784 -1.0851911 -0.8181314 0.41351467 0.55312043 0.5579239 0.09931028
-0.63977045 -0.011377472 -0.6262614 -0.33184767 0.15441057 0.62700856 0.23023356 0.9190471
-0.009925846 0.11076764 0.95327765 -0.38133866 -4.693294 0.4025757 0.032927103 -0.31301606
-0.381818 0.21852547 0.102025725 0.12503329 -0.14400819 0.029975792 -0.50376207 -0.21231514
0.234313 0.14037956 -0.03426888 0.27817774 0.35330588 -0.62153685 0.54103357 0.48894334
0.3329415 -0.054873835 -0.391321 0.15737693 -0.48271412 -0.22718436 -0.5286854 -0.21708247
0.17759685 -0.01492262 0.3754759 -1.180396 -0.19574746 0.0762337 0.1770526 0.46051633
0.8517255 0.28240222 -0.7521895 0.065553755 0.3231796 -0.2179828 -0.13722064 -0.13360116
0.61512876 -0.18111911 0.37150607 -0.9562447 0.7582512 -0.3372107 0.5457064 -0.047959983
0.7324086 -0.244323 0.01823191 0.3033002 0.7829387 -0.0029822842 0.1911765 -0.138964
0.36154652 -0.39350662 -0.002078189 0.14900853 0.83582103 0.3876864 0.030072829 -0.2925839
-0.37757486 0.43805012 -0.75847805 0.48007083 0.2089503 0.4791438 -0.04521177 0.34423324
0.08250944 0.31416395 0.075408176 -0.27270856 0.09573946 0.16038352 -0.46584636 0.15732709
0.12191193 0.4895931 0.02321481 -0.49154034 0.13998811 0.52891576 0.3238185 -1.0100448
00000000: 1151 f9be 531e a4be 11b5 bf3d afc2 1dbe
00000010: 98ce 083d 930f 853e 0db3 0bbf e4f9 203e
00000020: 5b5c cbbe dca3 a5be 6eda 133f 6d3c f33d
00000030: 119f 663d e0c4 f63e c1b7 fd3e bef2 083c
00000040: 31a0 71be 8e8a 583e b809 1ebf dd82 8e3e
00000050: b0b5 a0bd 4e48 45be d416 c6bd 8b6b 99bd
00000060: cbd9 cb3c 0b9e be3e d69e cebe d285 3cbe
00000070: ab5f 2f3d d721 c83f 657f 13be 0f71 edbf
00000080: e8e6 a3be e368 e2bd e4b6 9cbe 318f f0bb
00000090: 8b1e 46bf 2f1a 833e 33af cc3e 1cad 6a3e
000000a0: bfd5 0e3e 434b 843e aec7 113f 98d1 283e
000000b0: 0526 e3be ea21 81be d813 f83d da2f 8bbe
000000c0: a6c7 cd3e 1ba2 263f fb1a 8ebe 82df dd3e
000000d0: 6a9c 3c3e df47 f93c e5db 8f3c 6291 cabe
000000e0: 56e4 9f3e b63c 23bd 76a4 ba3d c7a4 49bf
000000f0: 304d efbe a66b 4c3e 20ef 2e3e 84c0 7a3e
00000100: da1f fb3e 4809 f2bd 1170 d33e e7ea 03bd
00000110: b712 24be 5c0b 5cbe c594 df3e fadb 94be
00000120: 779d 8e3e d50c ea3d 722b 053e 740a f33e
00000130: 29f5 883e 6be7 e3be b636 08bf 4cba a23d
00000140: 3d20 9cbe c59f 96be 2668 abbf 9da8 313e
00000150: 566a 183f a020 c33e d957 7f3e 0734 c4be
00000160: d72a 51be a0df a2be 558f 5ebe bc09 9c3e
00000170: 2127 a3bd 08dc e83d 57e4 fcbb 02eb 363e
00000180: 6ee5 4b3e 6521 86be 4820 8a3d 36f2 513e
00000190: b5f6 5f3e 8b21 093f 490e 8f3e 8bdd 3abe
000001a0: 1351 39be 9659 3c3e 5432 9bbd 0d89 e93e
000001b0: 152d 75be bb26 f23e a856 16be 6ad6 c6bd
000001c0: 73e9 69be 3aa7 16be 9be2 ee3e c4b7 833e
000001d0: 4d76 cfbd e155 b2bd dd1e ba3d f92b 3abd
000001e0: cc83 dd3d d27b b43b 72be 8c3d 11b9 7c3e
000001f0: cefa 10bf 96ee 95be 5457 05be 531b 07bf
00000200: 3794 5dbd 1b04 fd3e cd51 1f3f ed98 a93e
00000210: 5dba 1f3f 7066 65bf b7c9 e7be 37e1 35be
00000220: beae 2a3f e5ba 2ebf 2554 023f f3b9 c5be
00000230: 6eb2 9d3e 258f 193d ea5c 0fbe 6fe1 7e3d
00000240: e86c a5be e1e0 403e 8be7 8abf 0f71 51bf
00000250: 32b8 d33e 4d99 0d3f 1ad4 0e3f 3063 cb3d
00000260: ffc7 23bf 9468 3abc ab52 20bf f0e7 a9be
00000270: ce1d 1e3e a283 203f 59c2 6b3e ac46 6b3f
00000280: 04a0 22bc 25da e23d 010a 743f d23e c3be
00000290: 772f 96c0 671e ce3e 92de 063d a443 a0be
000002a0: a67d c3be 24c5 5f3e ddf2 d03d ba08 003e
000002b0: e276 13be cb8f f53c 8df6 00bf 2469 59be
000002c0: bfef 6f3e a9bf 0f3e 865d 0cbd 506d 8e3e
000002d0: 82e4 b43e 0a1d 1fbf 2d81 0a3f c856 fa3e
000002e0: 4f77 aa3e 63c3 60bd 3a5b c8be 6b27 213e
000002f0: 4e26 f7be 04a3 68be ed57 07bf de4a 5ebe
00000300: f3db 353e 017e 74bc 613e c03e 3717 97bf
00000310: 0672 48be 6a20 9c3d 474d 353e ccc8 eb3e
00000320: af0a 5a3f 0697 903e 7e8f 40bf 0c41 863d
00000330: cc77 a53e e236 5fbe 9183 0cbe bece 08be
00000340: 1479 1d3f 4a77 39be 0b36 be3e 74cc 74bf
00000350: c01c 423f e2a6 acbe 6ab3 0b3f b071 44bd
00000360: 217f 3b3f cf2f 7abe 165b 953c 2a4a 9b3e
00000370: ac6e 483f 6d72 43bb c6c3 433e 944c 0ebe
00000380: a01c b93e b379 c9be 3a32 08bb b195 183e
00000390: 5ef8 553f d57e c63e 4b5b f63c 8fcd 95be
000003a0: 7e51 c1be 1b48 e03e 9e2b 42bf d8cb f53e
000003b0: 11f7 553e 5652 f53e fa2f 39bd 573f b03e
000003c0: b6fa a83d 19da a03e 9a6f 9a3d 75a0 8bbe
000003d0: 0d13 c43d 943b 243e 6a83 eebe 5a1a 213e
000003e0: f6ac f93d f2ab fa3e fc2c be3c 2dab fbbe
000003f0: 0b59 0f3e 0667 073f 8acb a53e 2649 81bf

decoder.2.bias f4 [32]
0.080940284 0.30840585 -0.21610291 -0.60296226 0.041325264 0.14338788 -0.08391458 0.36032248
0.13667452 -0.51043135 -0.41706914 0.38025638 0.005764983 -0.35862032 0.112933695 0.02513925
0.15849693 -0.32096535 0.21591775 -0.22011687 -0.19832866 -1.2248868 -0.47107273 0.15425174
-0.29388455 -0.23414199 -0.36141124 -0.5642249 -0.26043525 -0.31778735 0.8204422 -0.27369124
00000000: 05c4 a53d 5fe7 9d3e 154a 5dbe bc5b 1abf
00000010: ae44 293d 46d4 123e 68db abbd 307c b83e
00000020: 68f4 0b3e a1ab 02bf 168a d5be f7b0 c23e
00000030: 2fe8 bc3b 159d b7be c849 e73d d4f0 cd3c
00000040: 054d 223e 9255 a4be 8b19 5d3e 5166 61be
00000050: ab16 4bbe 17c9 9cbf 7230 f1be 2bf4 1d3e
00000060: 0978 96be ebc2 6fbe e50a b9be 0b71 10bf
00000070: c557 85be 06b5 a2be 8008 523f 4221 8cbe

decoder.4.weight f4 [55, 32]
-0.41662738 -0.52879757 -0.005920983 0.9253016 0.05893455 0.17091209 -0.41504022 -0.1826019
-0.28890774 0.02523951 0.041827925 -0.14310834 -0.34034723 -0.00012353211 0.13451098 0.47499466
0.35161033 -0.06130894 -0.71307164 -0.32734773 -0.10300834 0.111574724 0.151848 0.041141324
0.24539626 -0.05173648 0.16469243 0.041963145 1.1679907 0.13942492 -0.72441906 -0.14991434
-0.06647678 0.038703177 0.2373175 -0.13356763 0.0067858915 -0.11017159 0.3979731 -0.12219747
0.30669218 0.15121768 -0.08150552 -0.5806553 -0.09865959 0.015857764 -0.34080356 -0.17924297
0.026632208 -0.09786046 0.03238599 0.15825692 0.24493384 0.09882389 0.08037177 -0.50534165
0.02685883 -0.69286 0.035448067 0.28095868 0.05442609 0.13955887 0.16256015 0.56634873
-0.76504517 0.008918932 0.3282148 0.004949731 -0.21297856 -0.50610495 0.2675527 0.08288053
0.22005473 0.20469688 0.49508622 0.022499748 0.38268974 -0.028969256 0.3630526 0.54491425
-0.3804428 0.4735832 -0.39718366 -0.48903593 -0.53908896 0.085382015 -0.16642554 0.6836341
-0.17255974 -0.24576612 -0.24755819 -0.5297682 -0.40131888 0.62192184 -0.4461541 0.0053156377
-0.76963514 0.0092291655 0.33471364 0.0024109497 -0.22264077 -0.50592524 0.26887426 0.087478325
0.22354786 0.20201981 0.49406183 0.011883356 0.3879183 -0.025158413 0.3625227 0.54753333
-0.37931314 0.47034466 -0.39392903 -0.4908102 -0.53060275 0.08787388 -0.15854517 0.67512727
-0.169987 -0.24460849 -0.24948183 -0.5317931 -0.41056022 0.6170245 -0.44537118 0.0022027784
0.80303955 -0.32443523 -0.18295032 -0.24579397 -0.46063507 -0.04346698 0.12699871 -0.40218642
-0.21048161 0.20721631 -0.22717306 1.8456191 0.08275855 0.28096172 -0.3896658 0.31924233
-0.045864552 0.74258304 0.28520596 0.36097726 -0.640178 -0.2566586 -1.1768296 0.35163662
0.62180185 0.1466818 -0.55238783 -0.2323474 0.42644733 0.5048913 0.29915828 -0.3525566
-0.7644167 0.015770297 0.30549574 0.015444484 -0.19550534 -0.5124013 0.27748352 0.08506294
0.21050411 0.18970792 0.49748245 0.0052997037 0.3690494 -0.04047406 0.35279799 0.5262713
-0.38372585 0.4711106 -0.3993478 -0.49148315 -0.522869 0.08953965 -0.15378031 0.6795405
-0.18728665 -0.23978648 -0.22131087 -0.5059382 -0.3863256 0.61251503 -0.4499893 0.019773662
0.6639014 -0.047073074 -0.07303162 0.085171826 -0.13220303 -0.48679107 0.35749784 0.015561465
-0.065553024 0.05497771 -0.05636059 -0.39789945 0.15146466 0.04674058 -0.37661082 -0.030935127
0.23763545 -0.2607645 -0.22763535 -0.35525605 -0.14547193 0.050632536 0.5896674 0.11651921
0.048384804 -0.9620608 -0.11653145 -0.16436839 -0.3213875 0.25255087 -0.22454925 -0.5647675
0.0015099024 0.1072223 -0.002534693 0.090205744 0.07607202 0.035348542 -0.049581636 0.008352136
-0.029783743 -0.0089980345 -0.22724958 0.04366147 0.31186154 0.07030199 0.032851953 -0.27440527
-0.04240438 0.20593461 -0.08043282 0.052787736 2.7719045 -0.025341835 -0.04236855 0.021196809
-0.04090017 -0.18140185 -0.14656243 -0.04648904 0.088036545 -0.019473303 0.013138219 -0.091434926
00000000: 2f50 d5be 475f 07bf ce04 c2bb 91e0 6c3f
00000010: 5b65 713d 9403 2f3e 2780 d4be fefb 3abe
00000020: b7eb 93be 17c3 ce3c c253 2b3d fe8a 12be
00000030: fe41 aebe 6688 01b9 3fbd 093e 8032 f33e
00000040: 4506 b43e 151f 7bbd dd8b 36bf 1f9a a7be
00000050: 09f6 d2bd 4a81 e43d 0b7e 1b3e ce83 283d
00000060: 2849 7b3e a2e9 53bd 22a5 283e 8ce1 2b3d
00000070: b880 953f 68c5 0e3e 8773 39bf 2583 19be
00000080: fa24 88bd 3987 1e3d 5c03 733e f4c5 08be
00000090: 2f5c de3b a4a1 e1bd 21c3 cb3e ab42 fabd
000000a0: c206 9d3e cfd8 1a3e 5eec a6bd d3a5 14bf
000000b0: 0a0e cabd 24e8 813c ce7d aebe 788b 37be
000000c0: ca2b da3c 116b c8bd 2ca7 043d 1a0e 223e
000000d0: f0cf 7a3e 2e64 ca3d f499 a43d 125e 01bf
000000e0: 0d07 dc3c 465f 31bf fe31 113d d1d9 8f3e
000000f0: e4ed 5e3d 85e8 0e3e 2b76 263e 3bfc 103f
00000100: 00da 43bf b620 123c c50b a83e 5a31 a23b
00000110: 0d17 5abe 1890 01bf abfc 883e 44bd a93d
00000120: 0756 613e 0f9c 513e f17b fd3e 6451 b83c
00000130: e9ef c33e ef50 edbc 08e2 b93e 807f 0b3f
00000140: 66c9 c2be 7f79 f23e a85b cbbe eb62 fabe
00000150: bc01 0abf c4dc ae3d 756b 2abe a502 2f3f
00000160: 80b3 30be 1daa 7bbe e57f 7dbe e49e 07bf
00000170: ab79 cdbe 4536 1f3f 4f6e e4be cd2e ae3b
00000180: cf06 45bf ed35 173c 965f ab3e 0601 1e3b
00000190: f1fb 63be 5184 01bf e3a9 893e d627 b33d
000001a0: bbe9 643e 48de 4e3e acf5 fc3e 68b2 423c
000001b0: 3a9d c63e 0419 cebc 939c b93e 252b 0c3f
000001c0: 5535 c2be 04d1 f03e 11b1 c9be 794b fbbe
000001d0: 95d5 07bf 39f7 b33d aa59 22be 24d5 2c3f
000001e0: 1211 2ebe a67a 7abe 2a78 7fbe 9823 08bf
000001f0: f334 d2be 51f5 1d3f b107 e4be 7d5c 103b
00000200: 0094 4d3f 601c a6be 5457 3bbe 6ab1 7bbe
00000210: 5cd8 ebbe 6f0a 32bd f30b 023e 61eb cdbe
00000220: 7e88 57be 8330 543e 0ea0 68be 3f3d ec3f
00000230: 517d a93d 37da 8f3e 4782 c7be bb73 a33e
00000240: 78dc 3bbd ec19 3e3f 8406 923e 03d2 b83e
00000250: b5e2 23bf c268 83be 5aa2 96bf b709 b43e
00000260: 682e 1f3f c133 163e 4a69 0dbf 7aec 6dbe
00000270: 4e57 da3e 8e40 013f 462b 993e 4c82 b4be
00000280: d0b0 43bf b630 813c f069 9c3e dc0a 7d3c
00000290: 8d32 48be bb2c 03bf 5212 8e3e 7b35 ae3d
000002a0: 648e 573e cb42 423e 05b6 fe3e 23a9 ad3b
000002b0: 0bf4 bc3e 21c8 25bd f0a1 b43e b7b9 063f
000002c0: b777 c4be 6935 f13e 5177 ccbe aea3 fbbe
000002d0: beda 05bf 9060 b73d 9678 1dbe 5ef6 2d3f
000002e0: 12c8 3fbe 968a 75be 519f 62be 2a85 01bf
000002f0: 78cc c5be c9cd 1c3f ff64 e6be 60fc a13c
00000300: 71f5 293f b2cf 40bd 9a91 95bd 916e ae3d
00000310: 3b60 07be ae3c f9be f509 b73e 84f5 7e3c
00000320: aa40 86bd 4f30 613d 5dda 66bd 7ab9 cbbe
00000330: 8d19 1b3e 0d73 3f3d 22d3 c0be aa6b fdbc
00000340: b556 733e ed82 85be 3e19 69be 1fe4 b5be
00000350: 98f6 14be 1064 4f3d 71f4 163f a0a1 ee3d
00000360: 252f 463d 9e49 76bf 0aa8 eebd 3050 28be
00000370: e78c a4be 594e 813e 3df0 65be 9a94 10bf
00000380: ebe7 c53a 5d97 db3d 181d 26bb cabd b83d
00000390: a6cb 9b3d a2c9 103d 1d16 4bbd 66d7 083c
000003a0: 09fd f3bc 7e6c 13bc 1db4 68be 5fd6 323d
000003b0: 51ac 9f3e 7dfa 8f3d c58f 063d d97e 8cbe
000003c0: 37b0 2dbd 86e0 523e f6b9 a4bd f437 583d
000003d0: e266 3140 ae99 cfbc a58a 2dbd eea4 ad3c
000003e0: f086 27bd 68c1 39be 7614 16be 4b6b 3ebd
000003f0: 814c b43d 7a86 9fbc af41 573c 3c42 bbbd

decoder.4.bias f4 [55]
-0.16057447 -0.21517752 0.014372845 0.011797873 -1.291957 0.041013025 -0.0880554 -0.26266927
-0.04991161 0.06025174 -0.33274585 -0.5933315 -0.5021652 0.024031755 0.19524828 -0.31073266
-0.18434536 -0.34638137 -0.5271094 -0.031698443 -0.23538795 -0.17110702 -0.11993891 -0.5044204
-0.2198964 -0.060915075 -0.37685838 0.14673167 -0.31840146 -0.48291323 -0.27420917 -0.027236313
-0.42978513 0.027222287 0.0024316083 0.13025194 -0.29771575 -0.14105971 -0.3746285 -0.37132055
-0.74030566 -0.3778644 -0.78991836 0.0049239593 -0.27420917 -0.07382224 1.3936923 -0.86231315
-0.32199284 -0.42978477 -0.07434147 -0.17016935 -0.7712484 -0.049911726 -0.5021652
00000000: a26d 24be 7f57 5cbe 157c 6b3c de4b 413c
00000010: d95e a5bf 46fd 273d 6456 b4bd 967c 86be
00000020: 1e70 4cbd 87ca 763d aa5d aabe 93e4 17bf
00000030: e68d 00bf 3ede c43c 2aef 473e 5a18 9fbe
00000040: 08c5 3cbe e658 b1be a4f0 06bf 3ad6 01bd
00000050: 8a09 71be ae36 2fbe 88a2 f5bd b221 01bf
00000060: 862c 61be 1682 79bd 95f3 c0be d440 163e
00000070: 8405 a3be 6740 f7be 2565 8cbe b01e dfbc
00000080: cc0c dcbe 4601 df3c 9e5b 1f3b c460 053e
00000090: 336e 98be f571 10be 4fcf bfbe ba1d bebe
000000a0: ac84 3dbf 7177 c1be 1738 4abf 2a59 a13b
000000b0: 2565 8cbe 1d30 97bd 8264 b23f 8ec0 5cbf
000000c0: 3fdc a4be c00c dcbe 5740 98bd e040 2ebe
000000d0: 8970 45bf 3d70 4cbd e68d 00bf
