models/CIC_IDS_2017/simple_AE.pt (torch, 24739 bytes, 12 tensors)

encoder.0.weight f4 [32, 55]
0	0xbe8b540f	-0.2721257
1	0x3ecfe198	0.40601802
2	0x3fa0ab0e	1.2552202
3	0xbfbf758d	-1.4957749
4	0x3da41481	0.08011723
5	0xbfed03dd	-1.8516804
6	0xbf3376e4	-0.7010329
7	0x3ddf60fb	0.109071694
8	0xbe8ec1b3	-0.27882156
9	0xbe824841	-0.2544575
10	0xbf013034	-0.5046418
11	0x3f898c06	1.0745857
12	0x3dad9698	0.08475989
13	0xbd222145	-0.03958251
14	0x3e0100d9	0.1259798
15	0xbda61179	-0.081088014
16	0x3e8a363c	0.26994503
17	0xbe3e86d6	-0.18606123
18	0x3e1e9504	0.15486532
19	0xbeeff00c	-0.4686283
20	0xbe48a2f2	-0.19593409
21	0xbe959cf2	-0.29221302
22	0x3d4aff47	0.049559858
23	0xbf26324d	-0.649205
24	0x3e1156e4	0.14193302
25	0xbe399f5c	-0.18127197
26	0x3e0e7a32	0.13913801
27	0xbc896c3f	-0.016775249
28	0x3e8a8056	0.27051038
29	0x3e53303c	0.20623869
30	0x3d234ccb	0.039868157
31	0xbd0a1656	-0.033712707
32	0xbd830e1b	-0.06399175
33	0xbc99246b	-0.018694123
34	0x3d384c3f	0.04499459
35	0x3ac5c1f8	0.0015087714
36	0xbf5a170d	-0.8519142
37	0x3dab25b0	0.08356798
38	0x3e07ac8b	0.13249414
39	0xbefd1243	-0.49427995
40	0x3ec4c74f	0.3843331
41	0xbe66b780	-0.22530937
42	0xbf0a6b22	-0.5406972
43	0xbe5c334d	-0.21503945
44	0x3c9278b9	0.01787983
45	0x3d020c1f	0.03174984
46	0xbfefd470	-1.8736706
47	0xbf2d996a	-0.67812216
48	0xbebe91b9	-0.37220553
49	0x3c6d7129	0.0144923115
50	0xbd175849	-0.03694943
51	0x3d1c1cf8	0.038113564
52	0x3e49e6b5	0.19716914
53	0xbe5e555d	-0.21712251
54	0x3df70736	0.12061922
55	0xbe3f391e	-0.18674132
56	0xbc036606	-0.00801993
57	0xbf8b0d84	-1.08635
58	0xbf9ebdfb	-1.2401727
59	0x3ee14014	0.439942
60	0x3e5208f7	0.20511232
61	0xbe63028d	-0.22168942
62	0xbde492f5	-0.11160842
63	0xbf230b89	-0.63689476
64	0x3f02e937	0.5113711
65	0x3ea6dd68	0.32590795
66	0x3da4a210	0.080387235
67	0x3e1f60cc	0.15564269
68	0x3f1a2b59	0.60222393
69	0xba5000be	-0.0007934681
70	0xbd346aa6	-0.04404702
71	0x3dc93f82	0.09826566
72	0xbeec70d0	-0.4617982
73	0xbd9cb834	-0.076523215
74	0x3ee91ea9	0.45531204
75	0x3e8408ff	0.25788113
76	0xbec8bb7c	-0.3920554
77	0x3d8d41e4	0.06897333
78	0xbdae075c	-0.084974974
79	0xbfa7dc4c	-1.3114104
80	0xbe582213	-0.21106748
81	0xbdf1cdf7	-0.11806863
82	0x3e6dacc5	0.23210438
83	0x3c8c071e	0.017093237
84	0xbf11da55	-0.56973773
85	0xbdbecf99	-0.0931694
86	0x3da8e6a3	0.082471155
87	0x3dacc1d5	0.08435408
88	0x3dff05ea	0.124523
89	0xbdaea694	-0.08527866
90	0xba4f6b78	-0.00079124374
91	0xbfbc9861	-1.4734002
92	0xbe535042	-0.20636085
93	0xbc1e2cd9	-0.009654247
94	0x3df79ee5	0.120908536
95	0x3e935112	0.2877279
96	0x3ee2dd41	0.44309428
97	0xbee6813f	-0.45020482
98	0xbc3b343c	-0.011426028
99	0xbcdae451	-0.026720198
100	0x3d998b90	0.074973226
101	0x3bbfaf26	0.0058497367
102	0xbf04ff29	-0.51951844
103	0xbf1a22de	-0.60209453
104	0x3c497ee6	0.012298321
105	0x3dd74013	0.10510268
106	0xbf0491fc	-0.51785254
107	0x3eb5b3f1	0.35488847
108	0xbf100474	-0.56256795
109	0x3e6e3c50	0.23265195
110	0xbd836e88	-0.064175665
111	0xbf8faf6c	-1.122541
112	0x3e50ca5f	0.20389698
113	0xbb016707	-0.0019745247
114	0x3e4edbe0	0.20201063
115	0xbe8ecd2d	-0.27890912
116	0xbcf0099b	-0.029301455
117	0xbed1c0bf	-0.40967366
118	0x3de7903c	0.113068074
119	0xbd54b835	-0.051933486
120	0xbeb62307	-0.355736
121	0xbd0d9d20	-0.034573674
122	0x3d30eeda	0.043196537
123	0x3eeb7702	0.45989233
124	0x3f338980	0.70131683
125	0x3cfa5dd9	0.030562328
126	0x3fc9363c	1.5719676
127	0x3e2228e4	0.15835911
128	0x3f814b8d	1.0101181
129	0xbf4a8990	-0.79116154
130	0xbf0e4195	-0.5556882
131	0x3e499286	0.196848
132	0x3f8e0bfe	1.109741
133	0x3fdb46f1	1.7131025
134	0xbf221225	-0.63308936
135	0xbfdaea2d	-1.7102715
136	0xbf9e3dc9	-1.2362605
137	0xbf3476d8	-0.7049384
138	0xbfd1aed4	-1.6381478
139	0x3e9557ab	0.29168448
140	0xbc5b6572	-0.013390886
141	0x3e049920	0.12949038
142	0xbd8e5008	-0.069488585
143	0x3dda2b54	0.106527954
144	0x3e7270c5	0.2367583
145	0x3c2b8a28	0.010469951
146	0xbca6d104	-0.020363338
147	0xbf791ba1	-0.97307783
148	0x3e80f2fc	0.25185382
149	0x3d004593	0.03131635
150	0x3ca1fd51	0.019774111
151	0xbe4ab9b2	-0.197974
152	0x3ecceee1	0.40026
153	0xbf69c72d	-0.91319543
154	0x3d1ff079	0.039047692
155	0xbedba994	-0.42902815
156	0x3e4a7c1c	0.19773906
157	0x3e4549af	0.1926639
158	0x3c8fb6d8	0.017543241
159	0x3bb26ffa	0.0054454776
160	0xbf073cc2	-0.52827084
161	0xbd2a2222	-0.041536458
162	0xbdc487e1	-0.09596229
163	0x3cb4f1cc	0.022087954
164	0x3de8fe06	0.11376576
165	0x3c88e4c0	0.016710639
166	0x3e15477f	0.14578055
167	0xbfee146d	-1.8599983
168	0xbff09255	-1.8794657
169	0x3e74d38b	0.23908822
170	0xbfb5c244	-1.419991
171	0x3ec47e46	0.3837759
172	0xbeb2b1e1	-0.34901336
173	0xbe6c6209	-0.23084272
174	0xbd6390de	-0.055558078
175	0xbd287d0d	-0.041134883
176	0x3e0985ba	0.13429919
177	0xbdb39ddf	-0.08770346
178	0x3e7b4a92	0.24540165
179	0x3d88d479	0.06681151
180	0xbdf83b6e	-0.1212071
181	0xbf09879a	-0.53722537
182	0x3ef989a8	0.48737836
183	0xbef9cb6c	-0.4878801
184	0x3e3cfc6d	0.18455668
185	0xbe77a795	-0.24185021
186	0x3e81ea22	0.25373942
187	0xbe2afa6c	-0.16697091
188	0xbdf473bf	-0.11936139
189	0xbe67b4ce	-0.22627565
190	0xbdafb600	-0.085796356
191	0x3ee6bfbe	0.45068163
192	0xbcff21e0	-0.031144083
193	0x3ed8cec8	0.42345262
194	0xbea8d48d	-0.32974663
195	0xbdb4cb9f	-0.088279
196	0x3def017f	0.11670207
197	0xbdc10c46	-0.09426169
198	0x3df1d3cd	0.11807976
199	0x3d198607	0.037481334
200	0x3b1213a7	0.0022289546
201	0x3e227905	0.15866478
202	0x3cef5d4d	0.029219294
203	0x3e44b08f	0.19207977
204	0xbf032475	-0.51227504
205	0xbee35653	-0.44401798
206	0xbe0170b6	-0.12640652
207	0xbef940e7	-0.4868233
208	0x3e1eb35c	0.15498108
209	0xbe801dc6	-0.25022715
210	0xbd3caf86	-0.04606583
211	0x3f9bdc2e	1.2176569
212	0xbf0113b4	-0.5042069
213	0x3f810825	1.008061
214	0x3d9b12a2	0.07571913
215	0x3cc48484	0.02398897
216	0xbba4eb1a	-0.005032909
217	0x3c948745	0.018130908
218	0xbe5f3152	-0.21796158
219	0xbc8aa8f1	-0.01692626
220	0x3f6419c8	0.8910184
221	0xbe4ef6fd	-0.20211406
222	0x3ef5af94	0.47985518
223	0x3e672efd	0.22576518
224	0x3c51dcbe	0.012808977
225	0xbf63511b	-0.8879563
226	0xbdef126a	-0.11673434
227	0x3e85576b	0.26043257
228	0x3d4aad24	0.049481526
229	0xbe488cd8	-0.19584978
230	0x3cfa9fbe	0.03059375
231	0xbdc4e649	-0.09614236
232	0x3c80496e	0.015660014
233	0x3e3a095b	0.18167631
234	0x3d81a023	0.06329372
235	0xbcc370a6	-0.023857426
236	0xbde20117	-0.11035364
237	0x3eded341	0.4352055
238	0xbdee32ac	-0.11630759
239	0x3dcdbe99	0.10046119
240	0xbdfef9c8	-0.12449986
241	0x3ea28728	0.3174374
242	0x3f01cfe6	0.5070785
243	0x3d46d367	0.048541453
244	0x3f2ebbad	0.6825512
245	0x3d0eb9ce	0.034845166
246	0x3f00b39a	0.5027405
247	0x3f504a7a	0.8136364
248	0xbeae81cc	-0.34083402
249	0x3e96bcda	0.29440957
250	0x3e3f7483	0.1869679
251	0x3dc3dd2d	0.0956367
252	0xbf87ee92	-1.0619681
253	0xbba46212	-0.0050165737
254	0x3db66cfd	0.089075066
255	0xbe461108	-0.19342434

encoder.0.bias f4 [32]
0	0xbee63f7b	-0.44970307
1	0x3d739b93	0.05947454
2	0xbf4e95d4	-0.8069737
3	0xc018080b	-2.375491
4	0x3f95da9b	1.1707338
5	0xbfbce8f7	-1.4758595
6	0xc04352b7	-3.0519235
7	0x3f8c5bda	1.0965531
8	0x3ff4db00	1.9129333
9	0xbe4b39d1	-0.19846274
10	0xbfa530f7	-1.2905568
11	0x403ee270	2.9825706
12	0xbf374462	-0.7158872
13	0x3f22d9a2	0.6361333
14	0x3e87b8fe	0.26508325
15	0x3f87a71e	1.0597875
16	0xbe1a34fd	-0.15059276
17	0xbf5df945	-0.8670848
18	0x3eab56b0	0.33464575
19	0x3fa9e7eb	1.3273901
20	0x3fa15e91	1.2606984
21	0x3f38acad	0.7213848
22	0xbfafd2ff	-1.3736266
23	0x3f8bf970	1.0935497
24	0xbfdf9154	-1.7466226
25	0xbf7e56b3	-0.9935104
26	0x3fd77387	1.6832131
27	0xbf66be24	-0.9013388
28	0xbd3ab023	-0.045578133
29	0x3f82927c	1.0200953
30	0xc001887e	-2.0239558
31	0xbfc189cd	-1.5120178

encoder.2.weight f4 [16, 32]
0	0x3d680582	0.056645878
1	0xbe372539	-0.17885293
2	0xbd7633a7	-0.060107853
3	0x3e1759a9	0.14780296
4	0xbcc0195c	-0.023449592
5	0x3bf143c4	0.0073628146
6	0x3e2a67d6	0.16641173
7	0x3e0146ba	0.12624636
8	0xbc8cea91	-0.017201694
9	0xbef5216a	-0.47877055
10	0xbeb818d9	-0.35956457
11	0xbe69b471	-0.22822739
12	0x3e412f24	0.18865639
13	0xbe88259c	-0.26591194
14	0x3ded0db0	0.11574876
15	0x3e17de66	0.14830932
16	0x3f14fb3b	0.5819585
17	0xbe29cc0f	-0.16581748
18	0x3dcb89f7	0.09938424
19	0xbded33a9	-0.11582119
20	0xbd2d44e3	-0.042302024
21	0x3e902129	0.281503
22	0xbda21716	-0.079145595
23	0x3e655ac7	0.2239791
24	0xbe47518b	-0.194647
25	0x3f0dc035	0.5537141
26	0x3eba515f	0.36390206
27	0xbc6ce165	-0.014458035
28	0x3ee8bb4c	0.45455396
29	0x3e924ce2	0.28574282
30	0x3c8c82a2	0.017152134
31	0x3d853775	0.06504718
32	0xbd925205	-0.0714455
33	0xbe988ccd	-0.29794922
34	0xbd846700	-0.06464958
35	0xbe9109e7	-0.28327867
36	0x3debb8a5	0.115098275
37	0xbeac66cc	-0.33672178
38	0xbe808d8d	-0.25107995
39	0xbef8ff55	-0.48632303
40	0xbf53726c	-0.8259647
41	0xbe02c1d7	-0.12769257
42	0xbecb5e0c	-0.3972019
43	0xbea67803	-0.32513437
44	0xbebfdc20	-0.3747263
45	0xbed9580b	-0.42449984
46	0xbe2fca00	-0.171669
47	0xbe2dc12d	-0.16968222
48	0xbe3c6dbf	-0.1840124
49	0xbe72db40	-0.2371645
50	0xbe3ce2c9	-0.18445887
51	0xbd56878e	-0.05237537
52	0xbeea4490	-0.45755434
53	0xbcaaa9b6	-0.020832878
54	0x3ed6cabd	0.41951552
55	0x3c6c8b9d	0.014437583
56	0xbf2b7674	-0.6697762
57	0x3f0c7849	0.5487104
58	0xbe99e3da	-0.3005665
59	0xbe3a8f7d	-0.18218799
60	0xbf1234f4	-0.5711205
61	0xbe0c3832	-0.13693312
62	0xbdf6263c	-0.120190114
63	0xbd4ac459	-0.049503658
64	0x3e85b698	0.2611587
65	0x3e382fcf	0.17986988
66	0x3c14ac4a	0.00907428
67	0x3d804ef2	0.062650576
68	0xbe76e270	-0.24109817
69	0x3e24f962	0.16110757
70	0xbe66eb11	-0.22550608
71	0x3d85aaca	0.06526716
72	0xbc49d6f0	-0.0123193115
73	0xbe81cfe4	-0.2535392
74	0x3dbc889f	0.09205746
75	0x3d959ace	0.07304917
76	0xbd0922d0	-0.033480465
77	0x3caf8592	0.021425996
78	0x3d437142	0.047715433
79	0xbd406866	-0.046974562
80	0x3d008276	0.031374417
81	0xbcd680b3	-0.026184415
82	0xbcdd0180	-0.026978254
83	0x3f0d28e9	0.5514055
84	0x3d8256b7	0.06364196
85	0x3e3af37a	0.18256941
86	0x3e017ae3	0.12644534
87	0xbca13c4f	-0.019682078
88	0x3d80c5d7	0.06287735
89	0xbd261137	-0.04054376
90	0x3da8fbf3	0.082511805
91	0xbbedcc95	-0.007257054
92	0x3d9554d5	0.07291571
93	0x3db78327	0.08960562
94	0xbdc8f421	-0.09812189
95	0x3f5655f6	0.83724916
96	0xbdf962f1	-0.12177075
97	0x3de1cd43	0.11025479
98	0x3f565128	0.83717585
99	0x3ddce6a4	0.10786179
100	0xbd942f10	-0.07235539
101	0x3d4db33f	0.05021977
102	0x3e259c0a	0.16172805
103	0xbdfb1d78	-0.1226148
104	0x3b6581b0	0.0035019927
105	0xbdec00ad	-0.115235664
106	0x3f0ba6f7	0.54551643
107	0x3e3aa1c9	0.18225779
108	0x3e778bad	0.24174376
109	0xbcc2fa01	-0.023800852
110	0x3eb2c7dd	0.3491811
111	0x3e5aa52d	0.21352072
112	0x3e745cd8	0.23863542
113	0x3e55420d	0.20825978
114	0x3e5fc350	0.2185185
115	0xbe1d28d7	-0.1534761
116	0xbd56d4f8	-0.052449197
117	0x3e56e8e9	0.20987286
118	0x3d6b2b39	0.057414267
119	0xbe1ad231	-0.15119244
120	0x3dd9042c	0.10596499
121	0x3d5b23fb	0.05350111
122	0xbd96cf9e	-0.073638186
123	0xbc3fbd80	-0.011702895
124	0xbe88b211	-0.26698354
125	0x3ccaabcd	0.024740124
126	0x3ee003e2	0.43752962
127	0x3d8d550e	0.069009885
128	0x3edecf1d	0.4351739
129	0xbcc80749	-0.024417536
130	0xbe00f464	-0.12593228
131	0x3c2d5b68	0.010580875
132	0xbe407721	-0.18795444
133	0xbd403a84	-0.046930805
134	0x3e1c6130	0.15271449
135	0x3dbadf37	0.09124606
136	0x3d44b91b	0.048028093
137	0xbe48c999	-0.19608153
138	0xbdd18ac4	-0.102315456
139	0x3e6d0340	0.23145771
140	0xbd0b1d88	-0.03396371
141	0x3d495538	0.049153537
142	0x3d6adfc4	0.057342306
143	0x3f43e0e7	0.7651505
144	0x3b8f1ede	0.0043676933
145	0x3d74b463	0.059742343
146	0x3d408b9d	0.047008146
147	0xbe9760f0	-0.29566145
148	0x3d8f0445	0.06983236
149	0xbbb0e050	-0.005397834
150	0x3e4d0ab2	0.20023611
151	0x3e4e6421	0.20155384
152	0xbcddccd2	-0.027075205
153	0xbe515bc3	-0.2044516
154	0x3ec2bb0a	0.38033324
155	0xbcc5746e	-0.02410337
156	0x3f1abc13	0.6044323
157	0x3e08efd2	0.13372734
158	0xbe25959d	-0.16170354
159	0x3e55ec81	0.20891
160	0xc061af2e	-3.5263171
161	0x3e0a0519	0.13478507
162	0x3d8216e4	0.06352022
163	0xbd3e147f	-0.046406265
164	0xbe321879	-0.17392148
165	0x3e2fbf73	0.17162876
166	0x3dbe2c06	0.092857406
167	0x3db41424	0.08792904
168	0xbe928338	-0.28615737
169	0xbe83b4af	-0.25723788
170	0xbf073545	-0.5281566
171	0xbe308a3d	-0.17240234
172	0xbc925e6d	-0.017867291
173	0xbe7e5125	-0.24835642
174	0xbf182ff2	-0.5944816
175	0x3e6b4116	0.22974047
176	0xbd6fdb9b	-0.05855904
177	0xbe2d67a0	-0.16934061
178	0xbeb86173	-0.36011848
179	0xbf126aba	-0.571941
180	0x3d4cc421	0.04999173
181	0x3ce56898	0.028003976
182	0x3ea08f14	0.3135916
183	0xbea95305	-0.3307115
184	0xbe72e288	-0.23719227
185	0x3eae1b42	0.3400517
186	0xbede2ed2	-0.43395096
187	0xbd3cd02d	-0.04609697
188	0x3e2137a9	0.15743889
189	0xbe42b1c5	-0.19013126
190	0x3e6f4bfb	0.23368828
191	0x3e90fb3e	0.28316683
192	0x3ea84920	0.3286829
193	0x3e3d0672	0.1845949
194	0x3d42dd58	0.04757437
195	0x3e20002d	0.15625067
196	0xbdf0636a	-0.11737712
197	0xbc474c21	-0.012164147
198	0xbe9d37d4	-0.30706656
199	0x3edb5f37	0.4284608
200	0x3f092ecc	0.5358703
201	0x3d2d88ea	0.0423669
202	0x3eb24406	0.34817523
203	0x3d44fbe1	0.048091773
204	0x3eca3487	0.394932
205	0xbe21bed1	-0.15795447
206	0x3f06d488	0.52668047
207	0x3d8de0ec	0.06927666
208	0x3ebbbd0a	0.36667663
209	0x3e899d28	0.26877713
210	0xbc0c99b3	-0.008581567
211	0x3d4a2223	0.04934896
212	0xbd954d0d	-0.07290087
213	0x3e80934d	0.25112382
214	0x3e7aff54	0.24511462
215	0xbe644109	-0.22290434
216	0x3d00a5f1	0.031408254
217	0x3d55fc5e	0.05224263
218	0x3d8957dc	0.06706211
219	0x3e5abe62	0.21361688
220	0x3f5cf0f9	0.86305195
221	0x3d58cb45	0.052928228
222	0x3ea22448	0.31668305
223	0xbf04ba5b	-0.51846856
224	0x3c88bfb5	0.016692976
225	0x3e79a0a2	0.24377683
226	0xbdc8ca28	-0.09804183
227	0x3e4b9fb3	0.19885139
228	0x3ea5cbd0	0.3238206
229	0xbe48dde0	-0.19615889
230	0xbe150b8d	-0.14555188
231	0xbe6412f9	-0.22272862
232	0x3e473efb	0.19457619
233	0xbc7e8731	-0.015535162
234	0xbeb10060	-0.345706
235	0x3dcb6565	0.09931449
236	0x3e00fcd2	0.12596443
237	0xbec89ba7	-0.39181253
238	0x3e48618f	0.19568466
239	0x3e47bb5a	0.19505063
240	0xbe6f58f2	-0.23373774
241	0xbdbdc2c0	-0.09265661
242	0x3e8ae2ae	0.27126068
243	0xbba23825	-0.0049505406
244	0xbd6e9592	-0.05824811
245	0xbe6083e6	-0.21925315
246	0x3dba9d11	0.09111989
247	0x3ebc7719	0.36809614
248	0x3a2d1a41	0.00066033384
249	0xbe89dc0d	-0.26925698
250	0xbe24d780	-0.16097832
251	0xbd76bdb0	-0.060239494
252	0xbfe26cb7	-1.7689427
253	0x3eb2a1c9	0.34889057
254	0xbfbe0c59	-1.4847518
255	0x3b5e3613	0.0033906742

encoder.2.bias f4 [16]
0	0x3f007f6b	0.50194424
1	0xbf97c6a2	-1.1857493
2	0x3f20404f	0.6259813
3	0x3faaec48	1.3353357
4	0x3e619e4a	0.22033039
5	0x3fa61360	1.2974663
6	0x3f2e3e35	0.6806367
7	0xbdb58fe3	-0.08865335
8	0x3f307dc1	0.68941885
9	0x3e0bf528	0.13667738
10	0xbf4e2185	-0.80519897
11	0xbe8e819b	-0.27833256
12	0x3ed16b89	0.40902355
13	0x3f849b45	1.0359885
14	0x3e8ce881	0.27521136
15	0xbe9042bd	-0.28175917

encoder.4.weight f4 [8, 16]
0	0x3dfb4470	0.12268913
1	0xbdd61506	-0.10453229
2	0xbd746853	-0.059669804
3	0xbd1f0107	-0.03881934
4	0x3ddb1dda	0.10699053
5	0x3ebb6a34	0.36604464
6	0x3e40fa14	0.18845397
7	0x3eb87b1a	0.3603142
8	0x3dd409ee	0.103534564
9	0xbc5f8509	-0.013642558
10	0x3c44c6e7	0.012010313
11	0x3e7df372	0.24799898
12	0x3d3d494d	0.046212483
13	0xbe98dfc2	-0.29858214
14	0xbecccb3b	-0.39998803
15	0xbe1aeb8f	-0.15128921
16	0x3ec16c4a	0.3777793
17	0x3d9700f5	0.073732294
18	0x3d376f5d	0.04478394
19	0xbeae8957	-0.34089157
20	0x3ec56268	0.3855164
21	0x3efa1901	0.488472
22	0x3e333f2b	0.17504565
23	0x3e424591	0.1897185
24	0xbe642450	-0.22279477
25	0x3dc092df	0.094030134
26	0xbe372dc2	-0.17888549
27	0xbea1eeac	-0.31627405
28	0xbdc522ec	-0.096258014
29	0xbe16c851	-0.14724852
30	0x3eb409af	0.35163638
31	0xbb3e16e7	-0.002900535
32	0x3cb1a7cd	0.021686459
33	0xbddee4a8	-0.108834565
34	0xbce3d7e3	-0.027812904
35	0xbe338647	-0.17531691
36	0xbd599abc	-0.05312608
37	0x3e395cc4	0.18101794
38	0x3e83cb16	0.2574088
39	0xbe9d4d36	-0.3072297
40	0x3e1329a5	0.14371355
41	0x3e272876	0.16324028
42	0xbd9be8bc	-0.0761275
43	0xbe255504	-0.16145712
44	0xbd8cd21d	-0.068760134
45	0x3e8dbbd8	0.27682376
46	0xbe967d91	-0.29392675
47	0x3daabd94	0.083369404
48	0x3d3be126	0.045869015
49	0x3dbcce56	0.09219043
50	0xbe38578f	-0.18002151
51	0xbe0a5f9b	-0.13513033
52	0xbdf39a3b	-0.118946515
53	0xbf17ae4e	-0.5925034
54	0x3cf912a0	0.030404389
55	0x3e1e9790	0.15487504
56	0xbd3447a8	-0.04401365
57	0xbe0f96d8	-0.14022386
58	0x3e57c6fd	0.21072002
59	0xbe161519	-0.14656486
60	0x3e78af1f	0.24285553
61	0x3cf3bdb5	0.029753545
62	0x3d5fec10	0.054668486
63	0xbe0998b3	-0.13437156
64	0xbd580706	-0.052741073
65	0x3e663718	0.22481954
66	0xbd3e664a	-0.04648427
67	0x3f2458a2	0.6419774
68	0xbdabf242	-0.083958164
69	0xbea8109a	-0.32825166
70	0x3d8ed28d	0.06973753
71	0x3e32e83c	0.17471403
72	0x3e46c725	0.19411905
73	0xbdd3c7ac	-0.10340819
74	0xbe82b536	-0.25528878
75	0xbe473d1c	-0.19456905
76	0xbc71541f	-0.014729529
77	0xbd269b26	-0.040675305
78	0x3e061721	0.1309476
79	0xbc72759a	-0.014798546
80	0x3c4c0630	0.012452647
81	0xbbdd0fc4	-0.006746264
82	0xbef85d4d	-0.48508683
83	0x3a5955ba	0.00082906673
84	0xbd245648	-0.040121347
85	0xbe0ee7d7	-0.13955627
86	0x3db7a33c	0.08966681
87	0xbd540229	-0.051759873
88	0xbd670cb5	-0.056408603
89	0xbd483099	-0.04887447
90	0x3c0b119e	0.008488087
91	0x3d74fe30	0.059812725
92	0xbbd2543c	-0.006418733
93	0xbe12a4c7	-0.1432067
94	0xbd0e2702	-0.03470517
95	0x3d659d53	0.05605824
96	0xbdad6d6d	-0.08468137
97	0x3e072f01	0.13201524
98	0x3b2dd165	0.0026522514
99	0x3e58b282	0.21161845
100	0x3eab1ed0	0.33421946
101	0xbf65ff48	-0.89842653
102	0x3dd3f331	0.103491195
103	0x3dc45a6f	0.09587561
104	0xbc9aeb0d	-0.01891091
105	0xbdd8d844	-0.105881244
106	0x3e317bb5	0.17332347
107	0xbe4306bf	-0.19045542
108	0xbd93213d	-0.07184074
109	0xbf1f5021	-0.6223164
110	0xbe3c29f9	-0.18375386
111	0x3e8cddf3	0.27513084
112	0xbedca397	-0.4309356
113	0x3e08e197	0.13367306
114	0xbb0d7052	-0.002158184
115	0xbd830da7	-0.06399088
116	0xbe8446f7	-0.25835392
117	0x3e7272b3	0.23676567
118	0x3f0e536c	0.5559604
119	0x3e0b1590	0.13582444
120	0xbecc8731	-0.39946893
121	0x3d345eb8	0.044035643
122	0x3e2bbb12	0.1677058
123	0x3d4071fd	0.046983708
124	0xbe4c9669	-0.19979252
125	0xbc9bbd5b	-0.01901119
126	0xbe20e7e9	-0.15713467
127	0xbd39dbd1	-0.04537565

encoder.4.bias f4 [8]
0	0xbd70ae1d	-0.058759797
1	0x3f0c623e	0.54837406
2	0x3e4b4065	0.19848783
3	0x3ecec3bc	0.40383708
4	0x3d32bc5f	0.043636676
5	0x3f264a8b	0.64957494
6	0x3dab19c7	0.08354526
7	0xbf848c9c	-1.035541

decoder.0.weight f4 [16, 8]
0	0x3ec57b04	0.38570416
1	0xbe51f92d	-0.2050521
2	0xbdac705f	-0.084198706
3	0xbdf3abf1	-0.118980296
4	0xbe832add	-0.2561864
5	0x3ddadd99	0.10686798
6	0x3c38eb3a	0.011286551
7	0xbea79660	-0.32731915
8	0x3e37b1b5	0.17938884
9	0xbe2a90ed	-0.16656847
10	0xbe55c995	-0.20877679
11	0x3e995bf2	0.2995296
12	0xbe248a24	-0.16068321
13	0xbd87e3e8	-0.066352665
14	0x3edea38b	0.43484148
15	0xbd403479	-0.04692504
16	0x3e60ba80	0.21946144
17	0x3d5eabfb	0.054363232
18	0x3de4781e	0.11155723
19	0x3f17da5a	0.59317553
20	0x3d324b09	0.04352859
21	0xbe312bad	-0.17301817
22	0x3cddc219	0.027070092
23	0xbdd2bbc1	-0.102897175
24	0xbe04af7b	-0.12957565
25	0x3d38416a	0.04498426
26	0xbdd7414d	-0.10510502
27	0xbbfc5d24	-0.007701533
28	0x3dc9c6db	0.09852382
29	0x3dfac9a7	0.122454934
30	0xbf057e04	-0.5214541
31	0xbdcf4854	-0.10121217
32	0x3f1ba003	0.60791034
33	0x3e0085b3	0.12551002
34	0x3da6e21b	0.08148595
35	0x3d99bcab	0.07506689
36	0x3e979de2	0.29612643
37	0x3dbae302	0.091253296
38	0x3c2410cc	0.01001377
39	0xbd38fcb8	-0.045162886
40	0x3ea70e6f	0.326282
41	0xbe482822	-0.1954656
42	0xbe16e0bd	-0.14734168
43	0x3e2a8246	0.16651258
44	0x3e678a94	0.22611457
45	0xbe3c8f61	-0.1841407
46	0xbe070e80	-0.13189125
47	0x3d2e7726	0.042594098
48	0x3ee7309b	0.4515427
49	0xbe5b4b2a	-0.21415392
50	0x3e2567ff	0.16152953
51	0x3e405aad	0.1878459
52	0xbdd3c8d1	-0.10341037
53	0x3ef862b3	0.48512802
54	0xbd5c97be	-0.05385565
55	0x3e89a802	0.26885992
56	0x3dcf2e66	0.10116272
57	0xbca62bc0	-0.020284534
58	0xbeae1fde	-0.34008688
59	0x3eb44937	0.35212108
60	0x3e145a97	0.14487682
61	0x3e52acdd	0.20573755
62	0x3e1f3ef0	0.15551353
63	0x3dc409c8	0.09572178
64	0xbcb86c0e	-0.022512462
65	0x3d6f446b	0.058414858
66	0xbf36e1e2	-0.7143842
67	0x3e1f3050	0.15545774
68	0x3d52ee95	0.05149706
69	0x3dc2bb8d	0.09508429
70	0xbe3cffea	-0.18456998
71	0x3e0d65ce	0.13808367
72	0x3edaf312	0.42763573
73	0x3dadb997	0.08482664
74	0xbe3cc712	-0.18435314
75	0xbed29871	-0.4113193
76	0x3dd31647	0.103069834
77	0x3edf4cfd	0.43613425
78	0x3e3795ca	0.17928234
79	0x3daa2574	0.08307925
80	0x3eb32163	0.3498641
81	0xbe532114	-0.20618087
82	0x3f05efac	0.52318835
83	0x3f300f32	0.68773186
84	0x3e30ad56	0.17253622
85	0xbe9dbe62	-0.30809313
86	0x3eb207ca	0.34771568
87	0xbe1a01c4	-0.15039736
88	0xbeae884d	-0.34088364
89	0x3d95dcbc	0.07317492
90	0x3ecf8326	0.40529746
91	0x3d5037f7	0.050834622
92	0x3e69fbcc	0.22849959
93	0xbc8b4c43	-0.017004138
94	0xbdd1f5d7	-0.10251968
95	0x3e518b47	0.20463286
96	0x3db7da37	0.08977168
97	0xbd0c97be	-0.0343244
98	0x3d734ba5	0.059398312
99	0x3dd64d3e	0.104639515
100	0xbdbe4516	-0.09290521
101	0xbe220089	-0.15820517
102	0x3d925663	0.07145383
103	0x3e9dbdba	0.30808812
104	0x3e4c75fb	0.19966881
105	0xbe90faf0	-0.2831645
106	0xbd0cd9ce	-0.034387402
107	0x3f034e62	0.5129148
108	0xbda4b096	-0.080414936
109	0x3e3981c0	0.18115902
110	0xbdc0c83e	-0.09413193
111	0x3b588e2c	0.0033043725
112	0x3bf40586	0.0074469475
113	0x3d4f2987	0.050576713
114	0x3d73d4cb	0.059529107
115	0xba38ea4a	-0.0007053955
116	0xbc8c0132	-0.017090414
117	0xbf33cb30	-0.70231915
118	0x3e04e22b	0.12976901
119	0x3d7f308a	0.06230215
120	0x3edabd0d	0.4272236
121	0x3e0e5516	0.13899645
122	0xbe3426f8	-0.1759299
123	0x3e3928cf	0.18081973
124	0x3cbcfca4	0.023069687
125	0xbbde7fce	-0.006790138
126	0x3dabb6b6	0.08384459
127	0x3dd4e85a	0.1039588

decoder.0.bias f4 [16]
0	0xbde91afa	-0.113820985
1	0x3f07d315	0.5305646
2	0xbe6be47c	-0.23036379
3	0xbec9a952	-0.39386994
4	0xbe2dc7f8	-0.16970813
5	0x3f19506d	0.59888345
6	0x3f6f99ab	0.93593854
7	0x3e4085f0	0.18801093
8	0x3ea3e09e	0.32007307
9	0x3ed27884	0.4110757
10	0xbec90dd1	-0.39268354
11	0xbf19499e	-0.59877956
12	0x3fb944f8	1.4474173
13	0xbc2a4852	-0.010393219
14	0x3d398568	0.04529324
15	0x3f18cddb	0.5968911

decoder.2.weight f4 [32, 16]
0	0xbcc8d2f0	-0.024514645
1	0xbd57cfd7	-0.052688446
2	0x3f3201c1	0.69533926
3	0x3dac66ee	0.0841807
4	0x3e0c1fd4	0.13684016
5	0xbe3a6657	-0.18203102
6	0xbe916e9c	-0.284047
7	0x3f13b434	0.57696843
8	0xbce053a6	-0.027383637
9	0xbf2e4920	-0.6808033
10	0xbf77a160	-0.96730614
11	0xbf1d78f1	-0.61512667
12	0x3e1ee995	0.15518792
13	0x3ebf8669	0.37407234
14	0x3dd4974f	0.10380422
15	0x3f4a3a9e	0.7899569
16	0xbd84204f	-0.06451475
17	0x3eac35ff	0.33634946
18	0xbed43b28	-0.41451383
19	0x3f32d084	0.6984942
20	0x3f80ad83	1.0052952
21	0xbdf11417	-0.1177141
22	0x3f14d941	0.58144003
23	0x3d11c8fb	0.03559206
24	0x3e2fb47d	0.17158695
25	0xbf0b9f9d	-0.54540426
26	0xbea85585	-0.32877746
27	0xbf690839	-0.9102817
28	0xbee9602c	-0.45581186
29	0xbeb51a83	-0.3537179
30	0xbf4d2f51	-0.80150324
31	0xbf0cab4a	-0.54948866
32	0x3e01424e	0.1262295
33	0x3eadd4d2	0.33951432
34	0x3f61a533	0.881427
35	0xbe848281	-0.25880817
36	0x3e8d0d7f	0.2754936
37	0x3dcb784b	0.099350534
38	0xbdc94a04	-0.098285705
39	0x3e3905c3	0.18068604
40	0x3deba5a6	0.11506204
41	0xbe6de124	-0.23230416
42	0xbde1c9a1	-0.11024786
43	0x3f88952a	1.0670521
44	0x3e59f6a0	0.21285486
45	0x3eeb18b2	0.4591728
46	0xbdbb14e2	-0.091348425
47	0xbefec1f3	-0.49757347
48	0x3d6db136	0.05803033
49	0xbe7bae3f	-0.24578188
50	0x3f89ebf3	1.0775131
51	0x3d8c37e2	0.06846596
52	0x3d8eafb0	0.069671035
53	0xbf896f41	-1.0737077
54	0xbda2d9bb	-0.07951685
55	0xbeb9b2ca	-0.36269218
56	0x3db08477	0.08619016
57	0xbf11ce5c	-0.56955504
58	0xbebaeefd	-0.3651046
59	0xbec47f6b	-0.38378462
60	0x3f1c4d59	0.61055523
61	0xbe2151ba	-0.15753832
62	0xbdec0d96	-0.11526029
63	0x3f584f29	0.8449579
64	0xbd83d922	-0.06437899
65	0x3f1ec05e	0.6201228
66	0x3d96705d	0.0734565
67	0x3eb4570e	0.35222667
68	0x3f0aa656	0.5416006
69	0xbf241bd9	-0.6410499
70	0x3d31b196	0.04338225
71	0xbee4c06e	-0.44678062
72	0x3f061202	0.5237123
73	0x3f00cc2f	0.5031156
74	0x3ea2ab1e	0.31771177
75	0xbeedd86c	-0.4645418
76	0xbdcd3584	-0.10019973
77	0x3e978355	0.29592386
78	0x3df75554	0.12076822
79	0xbeb8fc89	-0.3613017
80	0xbede72e5	-0.43447033
81	0xbe947787	-0.28997442
82	0xbf1f3c5a	-0.62201464
83	0xbf11d1a0	-0.5696049
84	0x3ebc9c81	0.36838153
85	0x3fb7bf7e	1.4355314
86	0xbe39ca00	-0.18143463
87	0xbefd994c	-0.4953102
88	0xc0a44f9c	-5.134718
89	0xbd8c877b	-0.06861778
90	0x3e1666af	0.14687608
91	0xbfe8110b	-1.8130201
92	0xbf1b35b5	-0.60628825
93	0x3eadcef8	0.33946967
94	0xc02c7a0e	-2.6949496
95	0xbec8f57c	-0.3924979
96	0x3f406fd5	0.7517064
97	0x3f090ae7	0.5353226
98	0xbe93c97e	-0.28864664
99	0xbf1abc15	-0.6044324
100	0xbf12dc1b	-0.57367104
101	0xbe9a376e	-0.30120414
102	0x3ebf2ccb	0.37338862
103	0x3e7d4277	0.24732386
104	0x3d9966f8	0.07490343
105	0x3ef75e71	0.4831424
106	0xbe8506f1	-0.25981858
107	0x3f03a59a	0.5142456
108	0xbef9fdf6	-0.4882657
109	0x3e420e5d	0.18950792
110	0xbe89b4ba	-0.26895696
111	0xbf41cbf3	-0.75701827
112	0xbe1c548f	-0.15266632
113	0x3e8402ff	0.25783536
114	0xbe72333f	-0.23652361
115	0x3dfdb220	0.1238749
116	0xbe02eb6e	-0.12785122
117	0xbeab1059	-0.3341091
118	0x3e7d728c	0.24750727
119	0x3f2a271a	0.66465914
120	0xbe306dae	-0.1722934
121	0x3ecb1c89	0.39670208
122	0x3dbfa373	0.09357347
123	0xbecc3e9d	-0.3989152
124	0x3f200783	0.6251146
125	0xbf3570b2	-0.70875084
126	0xbfb4deb7	-1.4130467
127	0xbec3cf01	-0.3824387
128	0x3d594834	0.053047374
129	0xbdf744f8	-0.120737016
130	0xbf725c60	-0.94672203
131	0xbe7750e9	-0.24151959
132	0xbe64887e	-0.22317693
133	0x3d06a089	0.032867942
134	0xbe3c8f9c	-0.18414158
135	0x3e62d149	0.22150148
136	0x3db8adf8	0.09017557
137	0xbcaae228	-0.020859793
138	0xbe09c520	-0.13454103
139	0x3e4f85ea	0.20265928
140	0x3f087776	0.5330728
141	0xbe6254e4	-0.22102696
142	0xbe8f704f	-0.28015372
143	0x3eae8448	0.34085298
144	0x3d93a6c6	0.07209544
145	0xbef17623	-0.47160444
146	0x3e9071e2	0.28211886
147	0xbdd8442d	-0.105598785
148	0x3e8e467a	0.27788144
149	0x3ef4b80c	0.47796667
150	0xbe601e12	-0.21886471
151	0xbf6b7bbb	-0.9198567
152	0x3d971dc3	0.073787235
153	0x3e17f18c	0.14838237
154	0x3ec6e590	0.38847017
155	0xbdf386e2	-0.11890961
156	0x3f353c27	0.7079491
157	0xbf0deab7	-0.5543627
158	0x3eb54a6f	0.3540835
159	0xbe08da67	-0.13364564
160	0xbe5b8146	-0.21436033
161	0xbe1beaa5	-0.15226229
162	0x3cd35c32	0.025800798
163	0x3d8b92a2	0.06815077
164	0xbd36b37a	-0.044604756
165	0x3e29b144	0.16571528
166	0x3f2c144c	0.6721847
167	0xbef06630	-0.46952963
168	0x3dd3568e	0.10319243
169	0xbdecc844	-0.11561635
170	0x3e613491	0.21992709
171	0xbc4e92ea	-0.012608269
172	0x3f0e0d94	0.5548947
173	0x3ecc325e	0.39882177
174	0xbf3cd57c	-0.7376325
175	0x3e4a2645	0.19741161
176	0x3e7ad8ad	0.24496718
177	0x3e89954c	0.26871717
178	0x3f749263	0.9553587
179	0x3e84de25	0.25950733
180	0x3e4bc9bf	0.19901179
181	0x3d0b4436	0.034000598
182	0xbe45278a	-0.19253364
183	0xbd9f0abc	-0.07765719
184	0xbeb8194c	-0.359568
185	0x3dc1b5a6	0.09458475
186	0xbb0cb6d8	-0.0021471288
187	0x3eeadd26	0.45871848
188	0x3d45b93d	0.04827236
189	0x3ea9a033	0.33130035
190	0xbd69b3fb	-0.05705641
191	0xbf0399cc	-0.5140655
192	0x3f538362	0.8262235
193	0xbf2ef809	-0.6834722
194	0xbf70b055	-0.9401906
195	0xbcd6f555	-0.02624003
196	0xbef29fa7	-0.4738743
197	0xbfe93af0	-1.8221111
198	0x3f5fedaf	0.8747205
199	0x3f892757	1.071513
200	0xc0d00ed7	-6.5018115
201	0xbf29ede9	-0.6637865
202	0x3ec438da	0.38324624
203	0xc097f135	-4.748194
204	0xbcb4b6ef	-0.022059886
205	0xbf971aee	-1.1805093
206	0xbf63bd38	-0.889606
207	0x3fa49578	1.2858114
208	0x3ef7ed9e	0.48423475
209	0x3e40c047	0.18823348
210	0x3e48bf06	0.1960412
211	0xbf5f9d58	-0.8734946
212	0xbcbd234c	-0.02308812
213	0x3e270f82	0.1631451
214	0x3ebcb3f7	0.36856052
215	0xbe5e0fe9	-0.21685757
216	0x3f2b2ec8	0.6686826
217	0xbe0508e9	-0.1299168
218	0xbc3f79d9	-0.011686766
219	0xbe8a8900	-0.27057648
220	0xbe739ca0	-0.23790216
221	0xbe415699	-0.1888069
222	0xbc818454	-0.01581017
223	0x3ef40dab	0.47666678
224	0xbfb95764	-1.4479795
225	0xc00429c8	-2.0650501
226	0xbe801889	-0.2501872
227	0x3fb2dd36	1.3973758
228	0xbf5f5900	-0.8724518
229	0xbdc371f1	-0.09543217
230	0x3ea79762	0.32732683
231	0xbf955edd	-1.1669575
232	0x3f9ba3b4	1.2159333
233	0x3eef3245	0.4671804
234	0xc09ce73c	-4.903227
235	0x3ed0cbc6	0.40780467
236	0xbf1bf7a3	-0.6092474
237	0x3d050ef0	0.03248495
238	0xbf6c699d	-0.92348653
239	0x3e66ccfa	0.2253913
240	0xbd924f92	-0.07144083
241	0x3edd83b0	0.43264532
242	0x3b029e66	0.0019930839
243	0x3ef49a15	0.47773805
244	0xbeccb856	-0.39984387
245	0xbd8641a2	-0.06555487
246	0x3eedb963	0.464305
247	0x3e7e6f76	0.24847206
248	0xbeed3dec	-0.46336305
249	0xbdef7b4d	-0.1169344
250	0x3e438c3b	0.19096462
251	0x3eb3c790	0.35113192
252	0xbdfdaaff	-0.123861305
253	0xbe36424d	-0.17798729
254	0xbbb384bb	-0.005478469
255	0x3ee279c6	0.4423353

decoder.2.bias f4 [32]
0	0x3c717c80	0.014739156
1	0x3e4e3754	0.20138294
2	0x3e172415	0.14759858
3	0xbdea339e	-0.114356264
4	0x3f02b616	0.5105909
5	0xbe7384a1	-0.23781063
6	0x3fb5bdb1	1.4198514
7	0xbf4acb30	-0.7921629
8	0xbf138b0f	-0.5763406
9	0xbf815575	-1.0104204
10	0xbe33a247	-0.17542373
11	0x3e805e9d	0.25072184
12	0x3e8fe11e	0.28101438
13	0x3d33ad5e	0.043866508
14	0x3ec6d477	0.38833973
15	0xbda3560c	-0.079753965
16	0x3f1f39d4	0.62197614
17	0x3e88e1b3	0.26734695
18	0x3ec52d2d	0.3851103
19	0xbfa8efc7	-1.3198174
20	0x3e7966f2	0.24355677
21	0x3d9d1eec	0.076719135
22	0x3e646b03	0.22306447
23	0x3f38a76e	0.7213048
24	0x3d33c297	0.043886747
25	0x3e035c82	0.12828258
26	0x3d92c502	0.071664825
27	0xbc034467	-0.008011914
28	0xbf93a171	-1.1533643
29	0xbe9e5a7d	-0.30928412
30	0x4008b276	2.1358924
31	0xbe86520c	-0.26234472

decoder.4.weight f4 [55, 32]
0	0x3e234fed	0.15948458
1	0xbe42e37e	-0.19032094
2	0xbe316f63	-0.17327647
3	0xba6e5316	-0.000909136
4	0xbd9e61a6	-0.07733469
5	0x3d96e22c	0.073673576
6	0x3d5885a5	0.05286183
7	0x3d8820a8	0.06646854
8	0x3e1d6c3b	0.15373318
9	0xbe2beb6a	-0.16789022
10	0x3e1c1c0c	0.15245074
11	0x3e2de8b1	0.16983296
12	0xbe471a23	-0.19443564
13	0xbc876ea6	-0.016532253
14	0x3ce591c6	0.028023612
15	0xbdc27689	-0.09495265
16	0xbc39ac76	-0.011332622
17	0xbed805a9	-0.42191818
18	0xbeacd05f	-0.33752725
19	0xbd32c293	-0.04364259
20	0xbf28cf7d	-0.659416
21	0x3dbf6a25	0.09346417
22	0xbdf0e0a5	-0.117615975
23	0x3efe9e40	0.4973011
24	0x3e0f2c7a	0.1398181
25	0xbe8079f0	-0.2509303
26	0xbe3a109c	-0.18170398
27	0xbe35fd09	-0.17772307
28	0x3d3f902a	0.046768345
29	0x3dec1e20	0.115291834
30	0x40583b69	3.378626
31	0x3e8e3bf5	0.2778012
32	0xbc19f871	-0.009397612
33	0x3bbf10f7	0.00583088
34	0x3e2f8548	0.17140687
35	0x3fea4878	1.8303366
36	0xbe4bdcd5	-0.1990846
37	0xbd88dcad	-0.066827156
38	0xbe202c5d	-0.15641923
39	0x3e3755ec	0.1790387
40	0x3dff53f0	0.12467182
41	0xbe1f6b02	-0.15568164
42	0xbd946872	-0.07246484
43	0xbeb003ea	-0.34377986
44	0x3c70995a	0.014684999
45	0x3d8f34db	0.06992503
46	0xbdb76dfc	-0.08956525
47	0xbde40e8b	-0.11135586
48	0x3cd7d12f	0.026344864
49	0x3e53a756	0.20669302
50	0xbb630757	-0.0034641826
51	0xbcd9902d	-0.026558006
52	0x3d3213bf	0.043475863
53	0x3e143c57	0.14476143
54	0x3cb94ad9	0.022618698
55	0x3e05fd21	0.13084842
56	0x3e738e8f	0.2378485
57	0x3ceaaffb	0.028648367
58	0x3ba589e5	0.0050518387
59	0x3d1d4c78	0.038403004
60	0xbd9c4804	-0.076309234
61	0x3e5d0c4f	0.21586727
62	0x3e051273	0.12995319
63	0xbc6c59f5	-0.014425744
64	0x3e746dc4	0.23869997
65	0xbe7f7edd	-0.24950738
66	0xbf134979	-0.57533985
67	0x3d13f9a2	0.03612674
68	0xbe7960fc	-0.24353403
69	0xbd6dc879	-0.058052514
70	0xbe6d6ba1	-0.23185588
71	0xbd37cc3b	-0.044872504
72	0x3ec7dd62	0.3903609
73	0x3e79776a	0.24361959
74	0xbdaeb1e7	-0.08530026
75	0xbe1cbff3	-0.15307598
76	0xbda372e5	-0.07980899
77	0xbe6ebf21	-0.23315097
78	0x3d924cef	0.0714358
79	0xbf0c1f4a	-0.54735243
80	0x3d9fcae6	0.07802372
81	0xbe26be6a	-0.16283575
82	0x3f5ac1b2	0.85451806
83	0xbbdb7953	-0.0066978126
84	0x3baa2435	0.0051923045
85	0x3e048c78	0.1294421
86	0x3eb5c98c	0.3550533
87	0x3f9a0f33	1.2035888
88	0x3e36f12d	0.17865439
89	0xbe30803c	-0.17236418
90	0xbeb4f6ea	-0.3534463
91	0x3e5a4818	0.21316564
92	0x3ea0cf68	0.31408238
93	0xbe961ba0	-0.2931795
94	0x3e323d43	0.17406182
95	0x3fa5f4bf	1.2965316
96	0x3e75c545	0.24001034
97	0xbe800c5a	-0.25009423
98	0xbf13994f	-0.57655805
99	0x3cf684d8	0.030092642
100	0xbe720fea	-0.23638883
101	0xbd5ec061	-0.054382686
102	0xbe71d4eb	-0.23616378
103	0xbd2e203e	-0.042511217
104	0x3ec68104	0.38770306
105	0x3e727bdc	0.23680061
106	0xbd9efb8b	-0.07762822
107	0xbe29482e	-0.1653144
108	0xbdb14ebe	-0.08657597
109	0xbe6f14d4	-0.23347789
110	0x3d8db482	0.06919195
111	0xbf0db8a7	-0.5535988
112	0x3d9f5fd1	0.077819474
113	0xbe27e276	-0.16394982
114	0x3f5dc6d0	0.8663149
115	0xbb99cd54	-0.0046936665
116	0x3bd0dc6a	0.0063739317
117	0x3e0d523e	0.13800904
118	0x3ebbcab1	0.3667808
119	0x3f9b5543	1.2135395
120	0x3e3339d9	0.17502536
121	0xbe364093	-0.1779807
122	0xbebba243	-0.36647233
123	0x3e5df4db	0.21675436
124	0x3e9c0722	0.30474192
125	0xbe958b1e	-0.292077
126	0x3e2c9ae7	0.16855966
127	0x3fa56aa3	1.2923168
128	0xbcea56e3	-0.028605884
129	0x3ec5608d	0.38550225
130	0x3d81b407	0.063331656
131	0x3d12dcc0	0.035855055
132	0xbec8289a	-0.39093477
133	0xbf0c0911	-0.54701334
134	0x3ed20a9f	0.41023728
135	0x3d41d1a9	0.047319088
136	0xbd6ca149	-0.057771
137	0x3fd10355	1.6329142
138	0xbe422a8f	-0.18961547
139	0x3e406cfc	0.18791574
140	0x3de7ad7c	0.113123864
141	0x3eda54c1	0.42642787
142	0x3e17ab42	0.14811423
143	0x3efea921	0.4973841
144	0xbef2345b	-0.4730557
145	0xbedb4a2e	-0.42830032
146	0x3dc36251	0.09540237
147	0x3d36e3c6	0.044650815
148	0x3dc65dc8	0.09685856
149	0xbf5481b4	-0.8301041
150	0xbefae6bf	-0.4900417
151	0xbf0ea999	-0.55727535
152	0x3f03182f	0.51208776
153	0x3db9c9c1	0.09071685
154	0x3e8a55c4	0.2701856
155	0x3de14907	0.11000257
156	0xbb9ee9ec	-0.004849663
157	0x3e43e48a	0.1913015
158	0x3eeac5be	0.4585399
159	0xbf04f781	-0.5194016
160	0x3e6c0558	0.23048913
161	0xbe7d9834	-0.24765092
162	0xbf112624	-0.5669882
163	0x3ce477a6	0.027889084
164	0xbe6b2cc7	-0.229663
165	0xbd59521d	-0.053056825
166	0xbe655932	-0.22397307
167	0xbd74add5	-0.05973609
168	0x3ecad789	0.39617565
169	0x3e72d397	0.23713528
170	0xbd94d77f	-0.07267665
171	0xbe1e8ec7	-0.15484153
172	0xbdadc694	-0.084851414
173	0xbe64fe16	-0.22362551
174	0x3d905858	0.070481
175	0xbf0cab90	-0.54949284
176	0x3da1fbcf	0.07909357
177	0xbe29a6ae	-0.1656749
178	0x3f5b822d	0.8574551
179	0xbbbf283c	-0.0058336537
180	0x3be0270f	0.0068405936
181	0x3e0aae8d	0.13543148
182	0x3eb0a080	0.34497452
183	0x3f99fff8	1.203124
184	0x3e26bc5f	0.16282795
185	0xbe325f4f	-0.1741917
186	0xbeb9a1fa	-0.3625639
187	0x3e5a78bd	0.2133512
188	0x3ea21dee	0.3166346
189	0xbe9b1486	-0.30289096
190	0x3e26c42c	0.16285771
191	0x3fa588ce	1.2932374
192	0xbda65e3e	-0.08123444
193	0x3eac27f5	0.33624235
194	0x3da82d59	0.082117744
195	0x3c315079	0.010822409
196	0xbad74a99	-0.001642543
197	0xbc8cf86e	-0.017208304
198	0x3d5be970	0.05368942
199	0x3db66df6	0.08907692
200	0xbd84850b	-0.064706884
201	0xbd3fa07c	-0.04678391
202	0xbe9da1b6	-0.30787438
203	0x3db70fae	0.089385375
204	0xbd35dc2e	-0.044399433
205	0x3def7df9	0.11693949
206	0xbd26555c	-0.04060875
207	0x3e353c1f	0.17698716
208	0x3d534f7d	0.051589478
209	0xbe1febf0	-0.15617347
210	0x3f58d455	0.8469899
211	0x3d909f76	0.07061665
212	0x3d0322aa	0.03201548
213	0xbe04c962	-0.12967446
214	0x3dd58abb	0.10426851
215	0xbf260ccb	-0.6486327
216	0xbe43c8b9	-0.19119538
217	0xbe00345d	-0.12519975
218	0x3ea2b585	0.31779113
219	0xbdf0ebe2	-0.11763741
220	0xbdc68c0e	-0.09694682
221	0x3e9ebc12	0.3100286
222	0xbdc970ae	-0.09835945
223	0xbe6acf38	-0.2293061
224	0x3e0d285f	0.13784932
225	0xbf0c393a	-0.5477482
226	0xbe48d1e0	-0.19611311
227	0xbd19feb7	-0.03759643
228	0x3eeb8da2	0.46006495
229	0xbf475bcd	-0.7787445
230	0xbd478309	-0.04870895
231	0xbc63f48c	-0.013913285
232	0x3e134e2e	0.14385292
233	0xbc92d8a1	-0.017925562
234	0xbcd77b81	-0.026304008
235	0xbefe6dd3	-0.49693164
236	0x3d4e061e	0.050298803
237	0xbede9a04	-0.4347688
238	0xbd073995	-0.0330139
239	0xbe3890ad	-0.1802394
240	0xbe0d1f7d	-0.13781543
241	0x3dc67b65	0.096915044
242	0xbdd03bf9	-0.10167689
243	0x3dc2ff10	0.095213056
244	0x3e25aa61	0.16178276
245	0x3df40fa9	0.119170494
246	0x3ec879cf	0.39155433
247	0xbdf79585	-0.120890655
248	0xbe1cf8f5	-0.15329345
249	0x3f924ddd	1.1430012
250	0xbd6a4143	-0.057191145
251	0xbd394ff9	-0.045242283
252	0xbf277c65	-0.65424186
253	0x3eb346d2	0.3501497
254	0xbec63dbc	-0.38718975
255	0x3e5df62e	0.21675941

decoder.4.bias f4 [55]
0	0xbf350fe0	-0.7072735
1	0xbee80871	-0.4531894
2	0xbea5da1e	-0.32392973
3	0xbea6312f	-0.324594
4	0xbdd0f463	-0.10202863
5	0xbea709ac	-0.32624567
6	0x3e321423	0.17390494
7	0xbdcb0bb8	-0.099143445
8	0xbe98f2bb	-0.2987269
9	0xbded6d7e	-0.115931496
10	0xbf1eb995	-0.62001926
11	0xbf77c00c	-0.96777415
12	0xbf0cd4d4	-0.5501225
13	0xbed772fe	-0.4207992
14	0xbd8483c2	-0.06470443
15	0xbe9b6bc0	-0.30355644
16	0xbe38fe9d	-0.18065877
17	0xbef00847	-0.46881315
18	0xbee65f2d	-0.44994488
19	0x3e42ac29	0.19010986
20	0xbeeaedbb	-0.458845
21	0xbe8c8fac	-0.27453363
22	0xbf070b5d	-0.52751714
23	0xbee989b8	-0.45612884
24	0xbe2ca28a	-0.16858879
25	0xbeb95e74	-0.36204875
26	0xbe077850	-0.1322949
27	0xbe08875c	-0.13332886
28	0xbe73b97d	-0.23801227
29	0xbe17761c	-0.14791149
30	0xbe89b0b7	-0.26892635
31	0x3ba517d9	0.0050382433
32	0xbe950cb4	-0.29111254
33	0x3ba75943	0.0051070764
34	0xbcc02d32	-0.02345905
35	0xbe2f793a	-0.17136088
36	0xbe9626cf	-0.29326484
37	0xbe1949c9	-0.14969553
38	0xbf11059f	-0.566492
39	0xbf2d5997	-0.6771483
40	0xbecec6be	-0.40386003
41	0xbf1eed5c	-0.6208093
42	0xbf5e7fb2	-0.869136
43	0xbd204bb6	-0.039134704
44	0xbe89b0b6	-0.26892632
45	0xbca6f754	-0.020381607
46	0x3fd77c51	1.6834813
47	0xbf7b11dc	-0.98074126
48	0xbf2f29a9	-0.68422943
49	0xbe950cb7	-0.29111263
50	0xbcb07d52	-0.021544132
51	0xc017728e	-2.3663669
52	0xbee5b493	-0.4486433
53	0xbe98f2ba	-0.29872686
54	0xbf0cd4d5	-0.55012256
